python/tests/security/attack/fake_data/fake_model_Cifar100_cuda.pt (torch, 357639 bytes, 10 tensors)

body.0.weight f4 [12, 3, 5, 5]
-0.18536583 -0.3542227 -0.15175337 0.4446894 -0.398485 0.3101011 -0.34867784 -0.11854091
0.43214297 -0.4271935 -0.04270363 0.14492333 0.08676916 -0.17420653 0.22509009 -0.0491181
-0.16879725 -0.28850442 -0.37405372 -0.12822089 -0.14236894 0.39600837 0.126293 0.15932989
-0.2078489 0.48816174 0.20515716 -0.011327982 -0.04644373 0.15000415 -0.2034601 -0.17063192
0.3503142 0.47237414 0.065568864 0.19640303 -0.48057815 0.4599263 -0.48770297 -0.14280578
0.31387043 -0.39003402 -0.18824154 0.35213178 -0.23817885 0.19871187 -0.4037408 -0.082440645
-0.0424293 0.115754604 -0.0828217 0.08513236 0.030266643 0.4116019 -0.17704365 0.44915694
0.027840078 -0.3208006 0.0052627325 0.40237528 0.2100178 -0.47377658 -0.18027893 -0.25945407
-0.30405068 -0.15289569 0.28235233 -0.16909018 0.13156801 0.3226269 0.28950077 -0.30357045
-0.11136031 0.4628501 0.37724906 -0.2413466 0.4457659 0.38615757 0.29495114 -0.31534767
0.0034883022 0.35526735 -0.20740065 0.22149098 -0.24459982 0.21513891 0.037597537 0.035244346
0.48636484 -0.005717993 0.09319168 0.034172773 0.24951786 0.13183331 -0.1809636 -0.43891695
0.23791802 0.049936295 -0.4191517 0.11213225 -0.36932462 0.46004075 0.3363554 -0.30078807
-0.49724075 0.3696131 0.2821614 -0.071894854 -0.19893575 0.2807834 0.36372787 -0.20650998
-0.43533278 0.33556545 -0.2216255 -0.21326953 -0.20262116 -0.36183268 -0.120413005 -0.3046173
-0.17495495 -0.2811498 0.4328028 0.07167858 0.043288648 0.07147223 -0.47664887 0.07063967
-0.44470114 0.058892965 -0.22778738 -0.3912602 -0.3043677 -0.21575376 0.17754817 0.3805037
0.39193237 0.36833203 -0.4708674 0.42356628 -0.26920176 -0.023129016 -0.10383627 0.34691596
0.3432175 -0.41166288 0.00081545115 -0.43816155 -0.2803249 -0.29217106 -0.15504116 -0.41840822
-0.2970807 0.22206509 -0.03447637 -0.30172002 -0.21691409 0.4955364 -0.39447612 -0.28368032
0.4765023 -0.016458154 -0.13801113 -0.26939434 0.48591226 -0.19207865 0.115381956 -0.14019713
-0.0039492846 0.077607274 0.48409134 -0.013914794 -0.19254732 -0.24451306 0.34540182 -0.4265722
-0.15048224 0.16602713 0.19188881 0.37862152 -0.3500687 0.26056212 -0.30208758 -0.16998753
0.29042655 -0.4169083 -0.2628731 0.35719478 -0.15304095 0.20839375 0.12945932 -0.41875708
-0.43165365 0.34941167 -0.43272072 -0.11002502 0.28999692 0.32551962 -0.3117692 -0.43189096
0.20140839 -0.4077045 0.10108 -0.21773082 -0.07281175 0.181081 0.44642812 -0.04797408
-0.3401221 0.46724164 -0.48379254 0.20223337 0.12048811 0.024833381 0.23042977 0.39463103
-0.2296752 -0.4437941 0.38119107 0.34502965 -0.4374488 0.18721396 -0.38083166 -0.2074911
0.28950065 -0.3902609 -0.4461122 -0.28229064 0.013815701 -0.47319305 -0.041300327 -0.29959968
0.19154239 -0.3180598 -0.006874144 -0.075873375 0.34458035 -0.24970534 -0.4942978 0.22871697
0.47676408 -0.1830132 0.48934722 -0.014102817 -0.25006625 -0.1846647 -0.23809153 0.23612243
-0.056887567 0.033902586 0.1959672 0.021028638 0.49551725 -0.4635669 0.3765145 0.39822876
00000000: 8ad0 3dbe ae5c b5be 3c65 1bbe 54ae e33e
00000010: 3a06 ccbe 92c5 9e3e e785 b2be 94c5 f2bd
00000020: d841 dd3e 1bb9 dabe 00ea 2ebd c866 143e
00000030: 08b4 b13d 3263 32be 047e 663e 1030 49bd
00000040: 30d9 2cbe dab6 93be f883 bfbe 564c 03be
00000050: 2ac9 11be 9cc1 ca3e f452 013e 6027 233e
00000060: 58d6 54be 56f0 f93e b814 523e 0099 39bc
00000070: c83b 3ebd b09a 193e d857 50be 22ba 2ebe
00000080: 625c b33e 06db f13e f848 863d e01d 493e
00000090: 570e f6be 767b eb3e 34b4 f9be ae3b 12be
000000a0: a0b3 a03e 8ab2 c7be 64c2 40be 9e4a b43e
000000b0: 28e5 73be 207b 4b3e 1db7 cebe a4d6 a8bd
000000c0: 58ca 2dbd c010 ed3d 6c9e a9bd e059 ae3d
000000d0: c0f1 f73c 7cbd d23e ee4a 35be e6f7 e53e
000000e0: e010 e43c fa3f a4be 0073 ac3b 2204 ce3e
000000f0: e80e 573e d892 f2be 0a9b 38be 2ad7 84be
00000100: 88ac 9bbe b090 1cbe 7c90 903e fa25 2dbe
00000110: c4b9 063e 5a2f a53e 7239 943e 966d 9bbe
00000120: e010 e4bd b0fa ec3e ca26 c13e 9023 77be
00000130: 6e3b e43e 72b6 c53e d603 973e 4075 a1be
00000140: 009c 643b 9ae5 b53e d660 54be 88ce 623e
00000150: 6078 7abe 604d 5c3e e0ff 193d 605c 103d
00000160: d004 f93e 005e bbbb 48db be3d c0f8 0b3d
00000170: 9c81 7f3e 50ff 063e 864e 39be b9b9 e0be
00000180: c8a0 733e 008a 4c3d 0d9b d6be 98a5 e53d
00000190: 1e18 bdbe 768a eb3e c636 ac3e e500 9abe
000001a0: 5796 febe ee3d bd3e 7677 903e 9c3d 93bd
000001b0: d0b5 4bbe d8c2 8f3e 8a3a ba3e 5a77 53be
000001c0: f0e3 debe 3ccf ab3e ccf1 62be 5463 5abe
000001d0: ec7b 4fbe 2242 b9be 189b f6bd ccf6 9bbe
000001e0: 6427 33be def2 8fbe 5498 dd3e 38cc 923d
000001f0: 704f 313d 0860 923d 520b f4be 88ab 903d
00000200: deaf e3be c039 713d 1841 69be 4253 c8be
00000210: 15d6 9bbe 8eee 5cbe 30cf 353e 62d1 c23e
00000220: 5cab c83e 0496 bc3e 8815 f1be aedd d83e
00000230: d0d4 89be 1079 bdbc 1ca8 d4bd f89e b13e
00000240: 34ba af3e 7ac5 d2be 00c4 553a b656 e0be
00000250: bf86 8fbe 7297 95be 1cc3 1ebe 9a39 d6be
00000260: f61a 98be 0865 633e 1837 0dbd 0c7b 9abe
00000270: ba1e 5ebe f2b6 fd3e c6f8 c9be 8c3e 91be
00000280: 1cf8 f33e 40d3 86bc ca52 0dbe 0eee 89be
00000290: 7ec9 f83e 44b0 44be 604d ec3d d68f 0fbe
000002a0: 0069 81bb 90f0 9e3d d2da f73e e0fa 63bc
000002b0: 202b 45be a261 7abe 82d8 b03e ac67 dabe
000002c0: 0418 1abe 0403 2a3e 807e 443e aeda c13e
000002d0: 343c b3be 6668 853e 39ab 9abe 3611 2ebe
000002e0: cab2 943e 0175 d5be 4e97 86be 3ce2 b63e
000002f0: c4b6 1cbe 2c65 553e fc90 043e 5467 d6be
00000300: b501 ddbe 16e6 b23e 928d ddbe cc54 e1bd
00000310: 7a7a 943e 82aa a63e 36a0 9fbe d020 ddbe
00000320: 003e 4e3e a5be d0be 0803 cf3d d4f4 5ebe
00000330: 541e 95bd 4c6d 393e 3a92 e43e 7880 44bd
00000340: 7c24 aebe 4c3a ef3e a8b3 f7be 4416 4f3e
00000350: 78c2 f63d 606f cb3c c8f5 6b3e 140d ca3e
00000360: fa2f 6bbe fb38 e3be 7a2b c33e baa7 b03e
00000370: 4af9 dfbe 04b5 3f3e 5efc c2be 8c78 54be
00000380: 6e39 943e 47d0 c7be d168 e4be 6688 90be
00000390: 405b 623c 5c46 f2be 882a 29bd 2165 99be
000003a0: b023 443e bcd8 a2be 8040 e1bb 8063 9bbd
000003b0: d66c b03e c2b2 7fbe 9a14 fdbe c834 6a3e
000003c0: 6c1a f43e d067 3bbe b88b fa3e 800f 67bc
000003d0: af08 80be be18 3dbe 44ce 73be 14ca 713e
000003e0: f002 69bd 70dd 0a3d a0ab 483e 4044 ac3c
000003f0: 70b4 fd3e a458 edbe 82c6 c03e a4e4 cb3e

body.0.bias f4 [12]
0.27664226 -0.20674333 0.010010064 0.12730968 -0.3304091 0.47540838 -0.18439457 0.094827175
-0.2042253 0.32404035 0.017825663 0.36090183
00000000: 0ea4 8d3e 86b4 53be 4001 243c 785d 023e
00000010: 622b a9be ba68 f33e eed1 3cbe c034 c23d
00000020: 7020 51be 9ee8 a53e 2007 923c 20c8 b83e

body.2.weight f4 [12, 12, 5, 5]
0.30017167 -0.10749039 -0.46906728 -0.26998645 -0.15166917 -0.4936969 0.1893059 -0.04513964
0.3069244 -0.0105955005 -0.47153872 0.40960854 0.34624618 0.09338772 -0.29529878 -0.30996007
-0.30044323 0.38906956 0.47946596 0.03224629 0.3192076 -0.4040294 -0.3493478 -0.36568487
-0.27215236 0.16001219 -0.30032414 0.28032476 0.15084636 -0.12399858 0.31224638 0.38934076
-0.11124322 0.303788 -0.13637933 0.30475998 -0.09945172 0.06254321 -0.21732363 -0.44944182
0.0038718581 -0.21942082 -0.15276736 -0.069794774 -0.20177144 0.13417983 0.4450332 -0.24813575
-0.32723802 -0.44289327 -0.4002059 -0.014697164 0.21930712 -0.46423283 0.34916204 0.38291746
-0.16835353 0.42228544 -0.2883411 0.27453232 0.14731413 -0.26772767 -0.06467086 -0.037228227
0.17184049 -0.4166671 0.25707477 0.22658443 -0.12955287 0.026019454 -0.22588068 0.24767822
-0.40597522 0.02565521 0.04245031 -0.45794925 0.32997352 -0.29399258 0.0006724 0.13878542
0.17954302 -0.19252461 -0.2608402 0.29960454 -0.022178948 0.27680725 -0.35527128 0.13588572
-0.496374 -0.45633674 0.39337242 -0.4610318 -0.25770503 -0.26629734 0.3383215 -0.23788023
0.47752172 -0.15437847 0.16733253 0.00922817 0.14226371 -0.02424565 0.27875888 -0.42901734
-0.23280543 -0.21976766 0.102475345 0.46717483 0.28789324 -0.4396102 0.49518502 -0.22928047
-0.03199622 -0.015439063 0.2773667 0.13193572 0.2856304 0.11296904 0.14326847 0.19512337
0.266595 0.08302927 0.26392978 -0.033587635 -0.1994353 -0.022006363 -0.20779058 -0.0076448917
0.050622523 0.15973437 0.38619787 -0.12480825 0.17257798 0.47927397 0.011352003 -0.16844755
0.041968286 0.01817602 -0.20739916 0.49475485 0.32152456 0.45795393 -0.46887377 0.07746494
-0.25225398 -0.4199993 -0.094276816 0.075433135 -0.3787635 0.4453848 -0.474326 0.2929486
-0.22243297 0.30928677 0.13242257 0.36785787 -0.038203806 0.18151987 -0.17902792 -0.42067796
0.3849042 0.095496595 -0.46853426 -0.3537162 0.30228692 -0.17278677 -0.3076201 -0.4360069
0.0618698 -0.1279093 -0.3124686 0.018137932 -0.11009982 -0.41842568 -0.21592018 0.23553789
0.26784283 -0.34041473 -0.08332628 0.037242413 0.35245883 0.23473829 0.13155407 0.06419742
-0.15655598 -0.08827123 0.30105078 0.4577651 0.04189235 -0.3987533 0.31625152 0.039449096
-0.026146024 0.023446083 0.24377698 -0.06498408 -0.06699112 -0.16690844 0.07405704 -0.11838436
0.37783474 0.07697618 -0.04837966 -0.3056081 0.30619204 -0.11695042 0.0349344 0.49077427
-0.40818882 -0.31554133 -0.07809597 -0.041178197 -0.02931428 -0.06227961 -0.4953992 -0.19442576
-0.1814551 -0.4810806 0.44905472 -0.27256846 -0.21975559 -0.028529108 -0.31453776 0.050076485
-0.22822806 0.4087786 -0.050467134 0.088915706 0.028023243 -0.28789502 -0.112721235 0.20483589
0.20713979 0.43409443 0.061819255 -0.4974554 -0.26406103 0.41008794 0.32818657 0.2443397
-0.37574524 -0.37592193 0.28028208 -0.20357984 -0.40569562 -0.025557697 -0.35971934 -0.17549828
0.4360127 -0.11859754 -0.22767067 0.06056249 -0.07180315 0.22437316 0.33263808 -0.17435676
00000000: 1ab0 993e ec23 dcbd 9629 f0be aa3b 8abe
00000010: 2a4f 1bbe d7c5 fcbe 68d9 413e 58e4 38bd
00000020: 3225 9d3e c098 2dbc 866d f1be 36b8 d13e
00000030: 2e47 b13e 1042 bf3d 6731 97be 16b3 9ebe
00000040: b2d3 99be 2034 c73e 907c f53e b014 043d
00000050: 2e6f a33e f1dc cebe b7dd b2be 0c3b bbbe
00000060: 8e57 8bbe 3cda 233e 16c4 99be ba86 8f3e
00000070: 7877 1a3e f8f2 fdbd c2de 9f3e ac57 c73e
00000080: 7cd3 e3bd 1a8a 9b3e 06a7 0bbe 8009 9c3e
00000090: 58ad cbbd a816 803d 168a 5ebe 3d1d e6be
000000a0: 00bf 7d3b daaf 60be 0c6f 1cbe 90f0 8ebd
000000b0: 2c9d 4ebe 7066 093e 64db e33e 4c17 7ebe
000000c0: be8b a7be e8c2 e2be cae7 ccbe 60cc 70bc
000000d0: 0c92 603e edaf edbe 5ec5 b23e c20d c43e
000000e0: de64 2cbe cc35 d83e 72a1 93be 808f 8c3e
000000f0: 84d9 163e 9a13 89be 2872 84bd a07c 18bd
00000100: f4f6 2f3e 6455 d5be 4e9f 833e c005 683e
00000110: 82a9 04be c026 d53c 444d 67be 5c9f 7d3e
00000120: fcdb cfbe e02a d23c 60e0 2d3d 5378 eabe
00000130: 4af2 a83e 3286 96be 0044 303a c41d 0e3e
00000140: 20da 373e 2c25 45be d98c 85be c465 993e
00000150: a0b0 b5bc aeb9 8d3e 1ee6 b5be a025 0b3e
00000160: bc24 febe f8a4 e9be 1c68 c93e 5c0c ecbe
00000170: eaf1 83be 2058 88be 7a38 ad3e e096 73be
00000180: ba7d f43e 6415 1ebe 3859 2b3e c031 173c
00000190: 94ad 113e d09e c6bc 7cb9 8e3e 29a8 dbbe
000001a0: 8c64 6ebe c60a 61be 98de d13d 8a31 ef3e
000001b0: be66 933e 9714 e1be e488 fd3e 80c8 6abe
000001c0: 780e 03bd 20f4 7cbc 0203 8e3e 281a 073e
000001d0: 263e 923e 505c e73d f8b4 123e 6cce 473e
000001e0: 247f 883e 400b aa3d ce21 873e 3093 09bd
000001f0: c438 4cbe b046 b4bc 0ec7 54be 0082 fabb
00000200: 9059 4f3d 6891 233e babb c53e 789b ffbd
00000210: 48b8 303e 6663 f53e c0fd 393c 847d 2cbe
00000220: f0e6 2b3d e0e5 943c 7260 54be 8250 fd3e
00000230: de9e a43e f078 ea3e 3910 f0be f0a5 9e3d
00000240: 6f27 81be 260a d7be 3414 c1bd b07c 9a3d
00000250: 4aed c1be 7a09 e43e dcda f2be 5cfd 953e
00000260: 78c5 63be d65a 9e3e c899 073e de57 bc3e
00000270: 987b 1cbd 58e0 393e 1853 37be 1a63 d7be
00000280: 2a12 c53e b893 c33d b9e3 efbe 4a1a b5be
00000290: 5ac5 9a3e 04ef 30be 6280 9dbe 4c3c dfbe
000002a0: 306b 7d3d a8fa 02be e2fb 9fbe 0096 943c
000002b0: 047c e1bd e43b d6be 2e1a 5dbe d830 713e
000002c0: b222 893e d74a aebe f8a6 aabd 808b 183d
000002d0: 7c75 b43e 3c5f 703e 1cb6 063e f079 833d
000002e0: 3650 20be 8cc7 b4bd 5423 9a3e 3060 ea3e
000002f0: 5097 2b3d 6429 ccbe b8eb a13e 6095 213d
00000300: 3030 d6bc 0012 c03c aca0 793e 6016 85bd
00000310: a432 89bd 0cea 2abe 38ab 973d 8073 f2bd
00000320: 8e73 c13e b0a5 9d3d c029 46bd aa78 9cbe
00000330: 34c5 9c3e b483 efbd 6017 0f3d c446 fb3e
00000340: 20fe d0be a28e a1be c8f0 9fbd 78aa 28bd
00000350: 8024 f0bc e818 7fbd f7a4 fdbe 8c17 47be
00000360: 5ecf 39be 3250 f6be 80ea e53e 188e 8bbe
00000370: 9c07 61be e0b5 e9bc 180b a1be 001d 4d3d
00000380: 9eb4 69be 6e4b d13e a0b6 4ebd 7019 b63d
00000390: 0091 e53c fa66 93be 64da e6bd 80c0 513e
000003a0: 741c 543e a041 de3e 3036 7d3d 79b2 febe
000003b0: 0233 87be 0cf7 d13e 1208 a83e 3034 7a3e
000003c0: ae61 c0be d778 c0be 2281 8f3e 3c77 50be
000003d0: 56b7 cfbe 605e d1bc 222d b8be d2b5 33be
000003e0: 0e3d df3e 44e3 f2bd 8022 69be 6010 783d
000003f0: 880d 93bd 14c2 653e 8a4f aa3e 948a 32be

body.2.bias f4 [12]
0.4651938 -0.020486683 0.4959393 -0.038372666 0.19604081 -0.0022922456 -0.11258793 -0.341141
0.22342974 0.23473942 0.47853696 -0.35833412
00000000: e22d ee3e b0d3 a7bc c2eb fd3e a82c 1dbd
00000010: ecbe 483e 8039 16bb 8094 e6bd 08aa aebe
00000020: c4ca 643e 885f 703e cc02 f53e 9277 b7be

body.4.weight f4 [12, 12, 5, 5]
-0.44148797 -0.19881794 -0.12469509 -0.08003929 0.24462652 0.0008722544 0.47270155 -0.011938602
-0.34657127 -0.15424818 0.07156634 -0.29977596 -0.3830778 -0.35059536 -0.21730497 -0.4465645
-0.21375132 -0.42422074 -0.31608278 0.11110002 -0.11216289 0.37334508 -0.32327157 0.36383587
0.25756562 0.10750902 0.4162864 -0.1300078 -0.14950973 0.08926314 -0.24655136 0.20768237
0.2597447 0.4862646 0.10073012 -0.25716174 0.23772633 0.27557254 0.37779438 -0.023597449
-0.26325423 -0.023755074 0.26828498 -0.41861087 -0.08813316 0.20019668 0.2480861 0.15439582
0.16300088 0.46720666 -0.16773856 -0.08104983 -0.08238381 -0.46438694 0.038669467 0.24157947
-0.14142701 0.05759442 -0.11772835 0.49474263 0.3157391 0.009883463 -0.23922259 -0.23518893
0.27505767 -0.39972353 0.059940636 -0.43309352 0.2733363 -0.19832075 -0.09345648 -0.4630848
0.29490352 0.4293903 -0.07320538 0.027828574 0.44573367 -0.32233912 -0.049232543 0.060162723
-0.3821438 0.27886134 -0.32080346 -0.38338208 0.084267735 0.0014342666 -0.25635207 -0.34554148
0.40157568 -0.17284772 0.47082222 -0.08910629 0.028158665 -0.47255078 -0.45358047 -0.106396616
-0.097804666 -0.40064108 0.34863776 0.06337774 -0.1563226 -0.020664036 0.37559623 -0.37876052
-0.13025585 0.25635892 0.06024885 -0.011947811 0.30701077 -0.049696773 -0.13401473 -0.30120343
0.21153182 -0.41446102 -0.32277995 -0.00858286 0.46711546 0.34355527 -0.04691574 0.1626516
-0.18649003 0.21181113 0.37415373 -0.37818125 -0.4639657 0.41149712 0.3627817 -0.28692466
-0.057471722 -0.038701624 -0.319928 0.4914046 0.12821728 0.021292746 0.37032807 0.18373239
-0.23675615 0.19391632 -0.38818622 0.40288633 0.15167654 -0.20959252 -0.14576519 0.43102247
0.1473239 0.07189417 0.110969424 0.057296634 -0.00379619 0.15383291 0.057466805 0.41708058
0.09797448 0.4601857 0.31929255 0.16737568 -0.4525136 -0.40171647 0.15491581 -0.33973607
-0.4063598 0.43463373 -0.46480298 0.3332789 -0.25798553 -0.2623709 -0.45809734 0.08770585
-0.24055713 -0.022310913 0.3424837 0.20394796 -0.01383993 0.28161126 0.21029174 -0.3380625
-0.3286308 0.10325724 -0.2147184 0.07893431 0.36253172 0.36369842 0.0034155846 0.23004562
0.30091202 -0.07367417 0.21161485 -0.12967011 0.3660137 0.069239974 0.41884184 -0.17790678
0.39503086 -0.36734357 0.08401054 -0.3752373 0.06257856 0.19701189 -0.47756383 -0.19924515
-0.075558454 -0.29538292 0.0121180415 0.2044496 -0.47246453 -0.382522 0.049714148 -0.11778849
-0.45230532 0.35416043 -0.41494396 0.3977794 0.3494084 0.3661222 -0.31720674 -0.46116865
0.13483876 -0.11285621 0.24068236 -0.15795326 0.07516503 -0.18534493 -0.26076633 -0.25572124
0.39248145 -0.24122036 -0.2944871 -0.48773527 0.35927904 0.15376318 -0.088682026 -0.479523
-0.19128266 -0.4124274 0.38993937 -0.4652948 0.29393858 0.15472025 -0.39923713 -0.2554916
-0.155233 0.09963858 0.21862108 -0.3945378 -0.2294307 0.45496446 -0.43191013 -0.28367805
0.29892606 0.103269935 0.39491427 -0.42155725 -0.3195498 -0.36265033 -0.09173235 -0.08036375
00000000: b60a e2be ee96 4bbe 2460 ffbd a4eb a3bd
00000010: 607f 7a3e 00a8 643a f005 f23e 209a 43bc
00000020: ca71 b1be 3cf3 1dbe 6091 923d 3c7c 99be
00000030: c622 c4be 3c81 b3be 3285 5ebe 1aa4 e4be
00000040: a0e1 5abe 7633 d9be 9ad5 a1be 6888 e33d
00000050: a8b5 e5bd 1627 bf3e da83 a5be b248 ba3e
00000060: a4df 833e b02d dc3d 7e23 d53e c420 05be
00000070: 1419 19be 98cf b63d f677 7cbe b0aa 543e
00000080: 42fd 843e acf7 f83e 984b ce3d b4aa 83be
00000090: 886e 733e d817 8d3e 446e c13e 704f c1bc
000000a0: 42c9 86be 009a c2bc a65c 893e 2a54 d6be
000000b0: 287f b4bd 5c00 4d3e 480a 7e3e f019 1e3e
000000c0: b4e9 263e b635 ef3e a8c3 2bbe 74fd a5bd
000000d0: d8b8 a8bd 20c4 edbe e063 1e3d 9c60 773e
000000e0: 3ed2 10be 20e8 6b3d 901b f1bd e84e fd3e
000000f0: 8ea8 a13e 40ee 213c c4f6 74be 5ed5 70be
00000100: 5cd4 8c3e 90a8 ccbe 5084 753d 6fbe ddbe
00000110: bcf2 8b3e 9814 4bbe 1c66 bfbd 7319 edbe
00000120: 98fd 963e 0cd9 db3e b4ec 95bd c0f8 e33c
00000130: 3437 e43e a209 a5be 10a8 49bd 306d 763d
00000140: 5aa8 c3be eac6 8e3e 5a40 a4be a84a c4be
00000150: 9094 ac3d 00fe bb3a 9440 83be d0ea b0be
00000160: 549b cd3e fefe 30be 9c0f f13e 5c7d b6bd
00000170: 00ad e63c 2df2 f1be b33b e8be 78e6 d9bd
00000180: d04d c8bd d420 cdbe a680 b23e 30cc 813d
00000190: 0813 20be a047 a9bc 264e c03e e6ec c1be
000001a0: ca61 05be 7a41 833e 80c7 763d c0c0 43bc
000001b0: 8430 9d3e d88e 4bbd 283b 09be 5637 9abe
000001c0: cc9b 583e 3c34 d4be 6a43 a5be 209f 0cbc
000001d0: c229 ef3e 7ae6 af3e b82a 40bd 248e 263e
000001e0: 3ef7 3ebe 04e5 583e 1491 bf3e f9a0 c1be
000001f0: ea8c edbe c0af d23e 86be b93e cae7 92be
00000200: 7867 6bbd 9885 1ebd 9acd a3be 6299 fb3e
00000210: 644b 033e 206e ae3c a49b bd3e 5824 3c3e
00000220: 3470 72be 0092 463e 58c0 c6be 1e47 ce3e
00000230: 1851 1b3e 6c9f 56be 7843 15be faae dc3e
00000240: 14dc 163e 403d 933d f043 e33d e0af 6a3d
00000250: 80c9 78bb 6086 1d3e 5062 6b3d 968b d53e
00000260: d8a6 c83d 769d eb3e 507a a33e 8864 2b3e
00000270: ddaf e7be c8ad cdbe 40a2 1e3e e3f1 adbe
00000280: 640e d0be 5088 de3e a8fa edbe 88a3 aa3e
00000290: ae16 84be 7b55 86be bc8b eabe 209f b33d
000002a0: 9c54 76be 60c5 b6bc 065a af3e bcd7 503e
000002b0: e0c0 62bc 5a2f 903e b856 573e 8716 adbe
000002c0: 4c42 a8be 8878 d33d 24df 5bbe 50a8 a13d
000002d0: c29d b93e ae36 ba3e 00d8 5f3b 1491 6b3e
000002e0: 2411 9a3e 7ce2 96bd 90b1 583e 3ec8 04be
000002f0: 2666 bb3e b0cd 8d3d 7072 d63e 322d 36be
00000300: 7c41 ca3e 7514 bcbe b80d ac3d 1a1f c0be
00000310: 3029 803d 7cbd 493e 3f83 f4be ec06 4cbe
00000320: 64be 9abd 6e3c 97be c08a 463c 3c5b 513e
00000330: dfe6 f1be ecd9 c3be 10a1 4b3d 183b f1bd
00000340: 9094 e7be 8454 b53e 8973 d4be bea9 cb3e
00000350: a8e5 b23e 5e74 bb3e ec68 a2be 4c1e ecbe
00000360: 2c13 0a3e 2821 e7bd 7075 763e 80be 21be
00000370: 20f0 993d 10cb 3dbe 2a83 85be e5ed 82be
00000380: 54f3 c83e 7802 77be 03c7 96be 70b8 f9be
00000390: 6cf3 b73e 1874 1d3e ec9e b5bd 0a84 f5be
000003a0: 9adf 43be af29 d3be 22a6 c73e 1f3b eebe
000003b0: 1e7f 963e fc6e 1e3e cf68 ccbe cccf 82be
000003c0: 66f5 1ebe 500f cc3d 34de 5f3e dc00 cabe
000003d0: e2ef 6abe 1af1 e83e 5323 ddbe 403e 91be
000003e0: d60c 993e 307f d33d 3432 ca3e 5ad6 d7be
000003f0: 089c a3be 4ead b9be 2cde bbbd c095 a4bd

body.4.bias f4 [12]
0.2765475 -0.33292416 0.26549488 -0.22409919 0.2875116 -0.17985538 -0.3198097 0.37917578
0.25004345 -0.454028 -0.07073346 -0.101539284
00000000: a297 8d3e 0975 aabe f2ee 873e 427a 65be
00000010: b834 933e 022c 38be 19be a3be 5423 c23e
00000020: b205 803e 5c76 e8be b4dc 90bd d4f3 cfbd

body.6.weight f4 [12, 12, 5, 5]
-0.09291375 0.31638718 -0.3204844 -0.33170298 0.10991883 -0.110414684 -0.2692033 0.15740252
0.24042737 -0.09066248 0.44767922 -0.41479728 -0.49193153 -0.1495964 0.49742287 0.020734787
0.014300704 -0.33640677 0.22110325 0.4676993 -0.4023771 0.111127734 -0.2046121 -0.070563674
0.09832466 -0.28986788 0.008149385 0.34256786 -0.045147896 -0.17898169 -0.113279134 0.48233157
-0.2910619 0.47878408 0.42214292 -0.07376376 -0.197757 -0.37891448 0.012298107 0.2111538
0.16053677 -0.009746015 -0.34469813 0.021060169 0.15463305 -0.45044616 -0.33075172 0.24496937
0.40303957 -0.11127874 -0.30337334 0.23229223 -0.25624734 -0.360175 0.31152487 0.006456673
0.3194123 -0.16159165 0.09196085 0.31691188 0.17917669 -0.17965353 0.3356905 -0.3882719
0.42212325 -0.4386065 -0.1505115 -0.13543662 -0.23685855 0.40165627 -0.39815372 0.016129315
0.19663149 -0.30535942 0.10545939 -0.06909251 0.21661377 0.030746698 -0.1326904 -0.31122157
-0.4490521 -0.42052913 -0.46412346 -0.4057266 -0.07753512 -0.30383295 -0.13229883 0.416524
-0.100616634 0.20385045 0.100473166 0.31225306 -0.00037887692 -0.45130372 0.19133842 0.019572854
0.13603365 0.05241704 -0.25031745 -0.13642108 -0.30712923 -0.13582689 -0.026344001 -0.48160446
0.47462302 -0.22931585 -0.38420233 -0.48293552 -0.052050352 -0.40380406 0.4372921 0.15026319
0.4467078 0.22657788 0.24176228 -0.14908025 -0.410514 0.41180027 -0.10952446 0.3310951
0.46029288 -0.4999622 0.30007207 -0.49063933 -0.37172398 0.38600016 -0.49339187 -0.43283254
-0.055056036 0.09664315 -0.28514034 -0.33817938 0.4468519 0.41581684 0.33006793 -0.37457514
0.19758326 -0.014023751 -0.39282507 -0.32068226 0.27508098 0.3360849 -0.035797596 -0.21013927
0.21429986 0.41770566 -0.16786972 -0.4638608 0.1737724 0.02370131 0.48033518 0.29109728
0.43088228 0.4230615 0.30354255 0.29213762 -0.45005518 -0.13505891 0.07479596 0.31138664
0.40095717 -0.09172553 0.07154232 -0.26879883 0.34054017 -0.013651192 -0.30646744 0.26550895
-0.48956886 0.43180913 0.3512678 -0.42746502 -0.48956898 -0.46711347 -0.09179914 -0.34652248
-0.07894188 0.33213556 0.13262594 -0.051648885 -0.23702931 0.1774543 0.108344555 -0.10222757
-0.20736864 -0.4048255 0.48890185 -0.25245303 0.014317334 0.031843245 -0.15897077 -0.4768996
0.17930627 0.08362621 0.450724 -0.40081614 0.44400507 -0.17284885 0.09002012 0.47475266
0.44482428 0.05592096 -0.46936363 -0.35420716 0.09770769 -0.095885396 -0.15813285 0.2246995
-0.17346948 -0.05447927 0.30062926 0.2684695 -0.022851437 0.060391486 0.3041826 0.1744029
-0.3019003 -0.45585698 -0.19171792 -0.35276672 0.49598646 0.1114828 0.30481243 0.3216291
-0.14907303 -0.3098325 0.290295 0.38221532 -0.41885552 -0.13974848 0.25858474 0.34184378
0.3123917 0.41454428 0.12527263 -0.12516004 -0.48758388 -0.43988967 0.38238603 0.3547777
-0.18298838 -0.12683725 0.029791653 0.42829138 -0.25521308 -0.17244494 -0.4065039 -0.04506445
0.113275886 -0.10691413 -0.08950955 0.088329434 0.42549258 0.26562732 0.33899915 -0.13431281
00000000: 9049 bebd 80fd a13e 8816 a4be f9d4 a9be
00000010: 201d e13d 1821 e2bd 04d5 89be 202e 213e
00000020: 9832 763e 40ad b9bd 3636 e53e 4f60 d4be
00000030: 73de fbbe cc2f 19be 36ae fe3e 00dc a93c
00000040: 804d 6a3c 823d acbe e468 623e 4876 ef3e
00000050: 5f04 cebe f096 e33d d685 51be b083 90bd
00000060: 705e c93d 9069 94be 0085 053c 0e65 af3e
00000070: 00ed 38bd fa46 37be e4fe e7bd 2af4 f63e
00000080: 1106 95be 3023 f53e 1e23 d83e 7411 97bd
00000090: d080 4abe 1401 c2be 007e 493c b438 583e
000000a0: c063 243e c0ad 1fbc 467c b0be 6086 ac3c
000000b0: 2058 1e3e e1a0 e6be 4a58 a9be 40d9 7a3e
000000c0: 345b ce3e 1ce6 e3bd c053 9bbe 04de 6d3e
000000d0: da32 83be dc68 b8be 3080 9f3e 8092 d33b
000000e0: 028a a33e 4878 25be f855 bc3d 4642 a23e
000000f0: 187a 373e 18f7 37be a0df ab3e 93cb c6be
00000100: 8a20 d83e 0891 e0be b01f 1abe e6af 0abe
00000110: 0c8b 72be e4a5 cd3e ceda cbbe a021 843c
00000120: c459 493e 1258 9cbe 18fb d73d 6080 8dbd
00000130: 00d0 5d3e 80e0 fb3c fedf 07be 6f58 9fbe
00000140: 28ea e5be 984f d7be 97a1 edbe 66bb cfbe
00000150: bcca 9ebd fe8f 9bbe 5879 07be a242 d53e
00000160: 1810 cebd 2cbe 503e e0c4 cd3d a2df 9f3e
00000170: 00a4 c6b9 4811 e7be 38ee 433e 4057 a03c
00000180: 684c 0b3e 40b3 563d 9c29 80be f8b1 0bbe
00000190: 0b40 9dbe 3416 0bbe 60cf d7bc dc94 f6be
000001a0: ca01 f33e c6d1 6abe 2bb6 c4be 5343 f7be
000001b0: c032 55bd 68bf cebe c0e4 df3e 98de 193e
000001c0: e2b6 e43e 0804 683e 8890 773e 7ea8 18be
000001d0: e42e d2be 7cd7 d23e 5c4e e0bd 4c85 a93e
000001e0: 82ab eb3e 0cfb ffbe 0ca3 993e 1435 fbbe
000001f0: 9b52 bebe d0a1 c53e dc9d fcbe 3a9c ddbe
00000200: 7082 61bd d8ec c53d eafd 91be d925 adbe
00000210: c6c9 e43e f2e5 d43e aafe a83e 50c8 bfbe
00000220: 4453 4a3e e0c3 65bc 5e20 c9be 7730 a4be
00000230: 6ad7 8c3e 5213 ac3e 80a0 12bd c02e 57be
00000240: 6c71 5b3e 84dd d53e 0ae6 2bbe 2a7f edbe
00000250: 64f1 313e 4029 c23c 7eee f53e b40a 953e
00000260: 9a9c dc3e 849b d83e ee69 9b3e 1093 953e
00000270: a26d e6be e24c 0abe a02e 993d 126e 9f3e
00000280: 424a cd3e 98da bbbd c884 923d 00a0 89be
00000290: 485b ae3e 40a9 5fbc 4de9 9cbe caf0 873e
000002a0: c5a8 fabe 1616 dd3e 60d9 b33e b2dc dabe
000002b0: c9a8 fabe 7f29 efbe 3001 bcbd 656b b1be
000002c0: 48ac a1bd ac0d aa3e 18cf 073e c88d 53bd
000002d0: d0b7 72be 94b6 353e c0e3 dd3d b05c d1bd
000002e0: 7258 54be 4a45 cfbe 5851 fa3e 8641 81be
000002f0: 4093 6a3c 106e 023d 3cc9 22be 2f2c f4be
00000300: 109c 373e 3844 ab3d 4cc5 e63e c637 cdbe
00000310: a254 e33e 4aff 30be 785c b83d c812 f33e
00000320: 02c0 e33e 600d 653d 6e50 f0be a45a b5be
00000330: f81a c83d 905f c4bd 94ed 21be a017 663e
00000340: fca1 31be a825 5fbd 14ec 993e d674 893e
00000350: f032 bbbc 105d 773d d2bd 9b3e ac96 323e
00000360: ad92 9abe 1666 e9be b451 44be d79d b4be
00000370: f0f1 fd3e 1851 e43d 6010 9c3e 92ac a43e
00000380: 9aa6 18be 5ea2 9ebe 8ca1 943e bab1 c33e
00000390: 3b74 d6be 3a1a 0fbe 3865 843e 2606 af3e
000003a0: cef1 9f3e 263f d43e 7847 003e f429 00be
000003b0: 98a4 f9be 3839 e1be 1ac8 c33e 6ca5 b53e
000003c0: 4e61 3bbe a0e1 01be a00d f43c 0249 db3e
000003d0: 4aab 82be 6895 30be 4721 d0be 8095 38bd
000003e0: 30fd e73d ccf5 dabd c850 b7bd 10e6 b43d
000003f0: 2ada d93e 4e00 883e 4c91 ad3e 4c89 09be

body.6.bias f4 [12]
0.13045663 0.08326805 -0.31559116 0.26363635 -0.1753844 0.19557017 -0.14165673 -0.045224756
-0.2318713 0.08438414 -0.016720593 -0.36222333
00000000: 6c96 053e 7088 aa3d 2a95 a1be 58fb 863e
00000010: f897 33be 8c43 483e 760e 11be 983d 39bd
00000020: ac6f 6dbe 98d1 ac3d a0f9 88bc 5675 b9be

fc.0.weight f4 [100, 768]
0.27286804 -0.46278206 0.23885614 0.15687764 -0.27013564 -0.45156643 -0.23551685 0.46347046
0.46519274 0.052276134 0.35927802 -0.28951353 -0.28260326 0.10157162 0.27252913 0.33735836
0.233589 0.34020972 -0.41694105 0.05063498 0.33872765 0.11936909 -0.45045504 -0.46320933
-0.11988175 0.012721777 0.3899852 0.4080705 0.12206066 -0.3268644 -0.4359379 0.2752627
-0.41336632 -0.29169002 0.21679741 0.2591414 0.3799696 -0.49349275 0.41600507 0.030897617
-0.41284308 0.04898274 0.43646318 -0.2186422 -0.27311504 0.1413362 0.046860754 0.15837586
-0.2500397 -0.21291852 0.12035233 0.4725877 -0.13146481 0.34053046 -0.39361072 -0.38814124
-0.3620246 0.07249123 0.24978513 0.43971223 0.47594976 0.44602025 0.119314015 0.49978262
-0.37092483 0.062565506 -0.20562637 0.17899114 -0.14098936 0.34225452 -0.18427208 -0.4701913
0.49621582 0.2322464 -0.20081979 -0.49053553 -0.101112574 0.37935042 -0.2917774 -0.19013965
0.20399517 0.17668855 0.28476745 -0.2992037 0.0059012175 0.4874376 0.21819788 0.42742532
0.47364074 -0.24881524 -0.10290483 -0.21969017 -0.22229046 -0.3625208 0.11034113 -0.16684836
-0.03611073 -0.47714332 -0.004402727 0.23963124 0.13334125 -0.3867092 0.37047654 -0.43833524
0.15215361 0.41258514 -0.31522813 -0.36862254 -0.36823207 -0.4613624 0.42277223 -0.3967911
-0.31475103 -0.14058486 -0.43580556 0.20840704 -0.42371017 0.25137573 0.2193641 -0.29796574
0.13656169 -0.40503746 -0.11185658 -0.4644233 -0.43719128 -0.35181963 -0.26788208 -0.08625522
0.16855282 -0.46335086 0.30458194 -0.083716154 -0.084460735 0.090408266 0.39553517 0.13753909
0.43541205 0.19969106 -0.02983877 0.03422308 -0.07570407 -0.17332646 0.21086842 0.2293871
0.049402 -0.2541592 -0.2628075 -0.33117276 0.16805083 -0.3354143 0.37358773 0.44577724
0.35034394 -0.2096492 -0.4552797 -0.4093896 -0.25270593 0.30127597 -0.018301308 -0.022240043
-0.47075865 -0.35543978 0.26438153 0.16787994 0.09959096 -0.26580673 0.17117047 0.2689001
-0.14158833 -0.07379866 -0.39840886 0.14539504 -0.057224423 -0.19465598 -0.1280576 -0.48026744
-0.16121003 0.17751676 0.39446253 0.13102204 0.157978 -0.33511728 0.1871019 0.05031705
-0.29304567 -0.47772092 0.45354164 -0.07993525 0.22870159 -0.28495365 -0.12343487 -0.37295786
0.43562353 -0.1888107 0.049487114 0.14877129 -0.35928467 -0.25595224 0.2511055 0.3932752
-0.14437783 0.10131568 -0.23036891 0.45050877 0.33074802 0.47003615 0.3099516 -0.35734397
0.4870261 -0.21776 0.101284504 -0.39859974 -0.19061196 -0.27362275 0.39419216 -0.14943478
0.4466983 -0.042025685 0.09288305 -0.40079445 0.33908165 -0.056339294 -0.41220385 0.07971537
0.0007506013 -0.48050675 0.3779831 -0.23050728 0.29205078 -0.013753712 0.04050535 -0.24398407
0.054730177 0.086886644 -0.09832254 0.042086244 -0.16645405 -0.13958937 0.28686982 0.18004578
0.43020087 -0.3954583 -0.33183834 0.17902869 -0.23685595 0.35239244 0.3079508 -0.097444445
-0.103951156 0.36132634 -0.4967489 -0.38188022 0.14576358 0.46077228 0.19859105 0.47434038
00000000: 5cb5 8b3e c5f1 ecbe b496 743e 88a4 203e
00000010: 384f 8abe b733 e7be 542b 71be 004c ed3e
00000020: be2d ee3e 801f 563d 4af3 b73e 1e3b 94be
00000030: 60b1 90be c804 d03d f088 8b3e 3cba ac3e
00000040: f431 6f3e f82f ae3e 4c79 d5be a066 4f3d
00000050: b66d ad3e c877 f43d 0ba2 e6be c629 edbe
00000060: 9084 f5bd 006f 503c 24ac c73e 9eee d03e
00000070: f0fa f93d c55a a7be 4133 dfbe 3cef 8c3e
00000080: c0a4 d3be 6558 95be 2400 5e3e 2eae 843e
00000090: 608b c23e 15ab fcbe 9efe d43e 001d fd3c
000000a0: 2b60 d3be 20a2 483d 1a78 df3e bee3 5fbe
000000b0: bcd5 8bbe 70ba 103e 10f1 3f3d 482d 223e
000000c0: 3405 80be 5007 5abe 487b f63d 04f7 f13e
000000d0: b69e 06be 025a ae3e 5887 c9be 73ba c6be
000000e0: 4a5b b9be 4876 943d acc7 7f3e f621 e13e
000000f0: b0af f33e c45c e43e e85a f43d 82e3 ff3e
00000100: dce9 bdbe 5822 803d b88f 52be 7449 373e
00000110: 845f 10be fc3b af3e d2b1 3cbe eabc f0be
00000120: 0010 fe3e 00d2 6d3e b4a3 4dbe 7927 fbbe
00000130: 1c14 cfbd 383a c23e d963 95be f8b3 42be
00000140: 1ce4 503e d8ed 343e 0acd 913e 3a31 99be
00000150: 005f c13b 6c91 f93e 446f 5f3e 7ed7 da3e
00000160: 0a81 f23e 6cc9 7ebe c4bf d2bd 76f6 60be
00000170: 1ca0 63be 549c b9be 88fa e13d 4cda 2abe
00000180: d8e8 13bd 214c f4be c044 90bb e461 753e
00000190: 9c8a 083e c0fe c5be 1aaf bd3e 7a6d e0be
000001a0: 28ce 1b3e 5c3e d33e 9565 a1be 18bc bcbe
000001b0: ea88 bcbe b137 ecbe 9a75 d83e 3428 cbbe
000001c0: 0c27 a1be 7af5 0fbe e821 dfbe a868 553e
000001d0: 8af0 d8be 52b4 803e fca0 603e f78e 98be
000001e0: d4d6 0b3e 1261 cfbe 1015 e5bd e4c8 edbe
000001f0: 89d7 dfbe b421 b4be d727 89be 94a6 b0bd
00000200: 1c99 2c3e 533c edbe 2af2 9b3e 6073 abbd
00000210: c0f9 acbd f827 b93d 9683 ca3e 0cd7 0c3e
00000220: 54ee de3e d07b 4c3e 7070 f4bc 802d 0c3d
00000230: bc0a 9bbd 7e7c 31be e4ed 573e 74e4 6a3e
00000240: c059 4a3d 2821 82be b48e 86be 7a8f a9be
00000250: 8415 2c3e 6cbb abbe e446 bf3e ea3c e43e
00000260: 4860 b33e 48ae 56be 6c1a e9be 839b d1be
00000270: ac62 81be d840 9a3e a0ec 95bc c030 b6bc
00000280: 4707 f1be 34fc b5be 045d 873e b8e8 2b3e
00000290: 58f6 cb3d d217 88be 5047 2f3e 46ad 893e
000002a0: 88fc 10be c023 97bd 3ffc cbbe 70e2 143e
000002b0: 2864 6abd e653 47be 8821 03be 9de5 f5be
000002c0: 3e14 25be f4c6 353e fef6 c93e a42a 063e
000002d0: fcc4 213e 7e94 abbe a497 3f3e 4019 4e3d
000002e0: 150a 96be d697 f4be 9c36 e83e 18b5 a3bd
000002f0: c030 6a3e 72e5 91be 6ccb fcbd 55f4 bebe
00000300: 0c0a df3e 9857 41be 00b3 4a3d 8057 183e
00000310: 29f4 b7be 2c0c 83be e690 803e 5e5b c93e
00000320: c8d7 13be 987e cf3d d4e5 6bbe 16a9 e63e
00000330: ce57 a93e 94a8 f03e fab1 9e3e caf5 b6be
00000340: 7c5b f93e 7afc 5ebe 406e cf3d 4415 ccbe
00000350: c82f 43be 4818 8cbe 8ed3 c93e 6e05 19be
00000360: a4b5 e43e 2023 2cbd 7839 be3d ee34 cdbe
00000370: 1c9c ad3e 08c4 66bd 620c d3be d041 a33d
00000380: 00c4 443a fb04 f6be 0087 c13e 1a0a 6cbe
00000390: ae87 953e 4057 61bc f0e8 253d f6d6 79be
000003a0: c02c 603d a0f1 b13d 545d c9bd a062 2c3d
000003b0: ee72 2abe 84f0 0ebe 9ae0 923e ec5d 383e
000003c0: 4a43 dc3e 8379 cabe b7e6 a9be 4c53 373e
000003d0: 5e8a 72be c86c b43e baab 9d3e f490 c7bd
000003e0: 58e4 d4bd c4ff b83e df55 febe ce85 c3be
000003f0: 0c43 153e 58ea eb3e 745b 4b3e bedc f23e

fc.0.bias f4 [100]
0.25688958 0.20626163 0.40714413 -0.12772968 0.38503343 -0.18993977 -0.009965628 0.0982697
0.4941336 0.12464732 -0.08125225 -0.45927924 0.051633656 0.20963979 0.2117278 0.24044609
0.14641953 0.46882337 0.29847246 0.47913074 -0.012584567 -0.20444858 0.46979618 -0.076045394
0.29904735 -0.46090022 0.23087358 -0.24602818 -0.3251153 0.37661165 0.40699667 -0.018656522
-0.05447337 -0.4720348 -0.17535236 0.44360423 -0.42994013 0.48668593 0.25767744 -0.18002298
-0.024128675 -0.23102832 -0.22096086 0.14450693 0.26128656 0.25328535 -0.053530753 -0.19897747
-0.30742496 -0.37257648 -0.38607717 0.059502006 0.012114584 -0.30895907 0.44427627 -0.36227962
0.12379211 -0.2607721 0.4004221 0.084582806 -0.22024155 0.2422077 -0.39249668 0.32995695
0.48935688 0.45248228 -0.098226696 0.08494377 0.11554754 -0.49784422 0.1766079 0.4179142
-0.24587578 -0.11431259 0.04434848 -0.23345137 0.3598203 0.13160074 -0.15275803 0.1188398
0.21086645 0.1549806 -0.08615437 -0.14744875 0.04380727 -0.259296 0.09148651 0.1646412
-0.22229797 -0.47277316 -0.38290894 0.37009603 -0.014625818 -0.22027153 0.10290128 -0.117125034
0.22755617 -0.32690543 0.4822061 -0.3435461
00000000: 0887 833e 4036 533e 3275 d03e 92cb 02be
00000010: 1a23 c53e 927f 42be e046 23bc a041 c93d
00000020: 14ff fc3e 1847 ff3d 9467 a6bd a626 ebbe
00000030: d07d 533d d0ab 563e 2ccf 583e 8037 763e
00000040: 00ef 153e 9e09 f03e 62d1 983e a050 f53e
00000050: 802f 4ebc f85a 51be 2089 f03e b0bd 9bbd
00000060: bc1c 993e 1dfb ebbe 206a 6c3e d0ee 7bbe
00000070: 8375 a6be 3ed3 c03e de61 d03e 90d5 98bc
00000080: 781f 5fbd 8cae f1be 928f 33be 1820 e33e
00000090: 1d21 dcbe e62e f93e 4cee 833e f257 38be
000000a0: 80a9 c5bc b092 6cbe 9043 62be a0f9 133e
000000b0: 5ac7 853e 9eae 813e 1043 5bbd c0c0 4bbe
000000c0: ce66 9dbe 58c2 bebe e8ab c5be 60b8 733d
000000d0: 407c 463c e22f 9ebe 2e78 e33e b77c b9be
000000e0: b886 fd3d ec83 85be 2004 cd3e c039 ad3d
000000f0: 0087 61be 4c05 783e 53f5 c8be 1ef0 a83e
00000100: fc8c fa3e c2ab e73e 142b c9bd 00f7 ad3d
00000110: 30a4 ec3d 70e5 febe b4d8 343e daf8 d53e
00000120: dcc6 7bbe b81c eabd c0a6 353d e00d 6fbe
00000130: 5e3a b83e 58c2 063e 9a6c 1cbe 4862 f33d
00000140: 60ed 573e 3cb3 1e3e b471 b0bd cefc 16be
00000150: 406f 333d 72c2 84be 485d bb3d b497 283e
00000160: 14a2 63be 530f f2be a40c c4be 3a7d bd3e
00000170: 20a1 6fbc dc8e 61be e8bd d23d 40df efbd
00000180: 7c04 693e 2660 a7be b8e3 f63e 46e5 afbe
