python/tests/security/attack/fake_data/fake_model_Cifar100.pt (torch, 357511 bytes, 10 tensors)

body.0.weight f4 [12, 3, 5, 5]
00000000: 82d6 f7be d685 b73e 4c03 ac3e e017 77be
00000010: 94f4 d43e de35 d03e 40e5 bb3c f000 fe3e
00000020: 1a40 ba3e c076 493e 3ce9 823e e88d 37be
00000030: 2c6d b9be 5a7b f0be 5032 293e 061d b7be
00000040: 80f4 4cbc cec9 bf3e 7489 70be b001 cdbd
00000050: 221a dfbe 6062 b8bd 3e50 e9be 266a e5be
00000060: 2a98 8cbe 984e c93e 5ef9 8ebe 8809 233e
00000070: b04b d6bd 4072 763e 00d9 b83b 162d b33e
00000080: e066 20be 500d a6be a03a ce3e e0fa e93e
00000090: a8ea 10be 6c4f 30be c609 993e ec2c 143e
000000a0: a8c9 e7bd c060 74bc 1642 c93e 4c52 d1be
000000b0: f82c 4fbe fc37 413e f899 523e 466f 95be
000000c0: a8f2 98be 306e f23d 6482 21be b839 5ebe
000000d0: c617 80be 8a6c a7be 2042 fd3c 3470 833e
000000e0: 98dd 943d 000b 15be ecf4 d5be 16b2 85be
000000f0: 78a9 a6bd feaf c73e b8d5 73be 9083 9f3e
00000100: d8b5 d3be 581a fd3e 7c5f 2c3e e66d dcbe
00000110: ac33 2a3e 1891 9fbd 6cbb 973e d804 08be
00000120: 4e66 e6be 3405 053e 7069 313e fafc d03e
00000130: b4a9 53be a8b6 2e3e d05b 363d a068 abbd
00000140: 0634 973e 6cd0 54be d434 f93e 907c a13e
00000150: 78c8 7fbe 1830 fa3d 183c 56be cced 3dbe
00000160: 30ea 32be 3e28 af3e 4e75 e23e 6072 0e3d
00000170: 20c6 3fbd d819 c03e b01a a83d 40cc 7bbc
00000180: 720d 89be 8a20 b4be d065 9c3d 9413 d13e
00000190: c0bb a53e ec98 15be fcba eabe 4070 04be
000001a0: 40e3 64be 2a36 9e3e 7ccb 25be 5ceb e0be
000001b0: 661f 913e cccf bdbe 6896 c0be cc8d c7be
000001c0: 2cae 11be 342a d33e ac86 10be b88e 5a3e
000001d0: 82f4 ff3e f89c bb3e d4ed b13e 6687 e83e
000001e0: 7034 cabe 228c e43e e885 47be 6c18 f43e
000001f0: 4e1c ca3e 8447 22be aace ec3e c07c 5f3c
00000200: fc74 94be 50db a7bd c22e d1be a03f f7bd
00000210: 4ee9 db3e 54b3 163e 9693 e8be b282 adbe
00000220: dc68 7abe d890 233e a47d 83be 5a88 eebe
00000230: e87b ec3d 0013 1c3e c00f b9be 705e a5bd
00000240: 3c8f 143e 742f cc3e 6c13 323e 960f fcbe
00000250: f600 80be 2e2e 8f3e 18cd eebe c0c4 a8bc
00000260: 686d e33d aaf3 a0be b000 893d 48b9 c13d
00000270: 42ce c3be 56f7 e6be be5a 813e 1070 1b3d
00000280: c4d0 3c3e 4e4b c5be cab6 91be 32c4 ba3e
00000290: a0f6 fc3c d0dc 5dbe 940c e7be 4495 0ebe
000002a0: d205 ae3e c045 cebe 0801 a8be 20bb 7d3e
000002b0: 7058 dabe 1674 823e 7886 b3bd b017 183d
000002c0: 5c6e b8be 1c35 aabe d66f febe 90c5 e13d
000002d0: ac95 3fbe c0b6 c8bd 0050 9539 b0cd cfbd
000002e0: 7a16 ebbe bc83 11be 70d3 91bd 58ef f33d
000002f0: 802f fabb b27b c0be e4c8 2a3e 8053 fe3d
00000300: d8e4 e3be c0e3 87bc 9421 623e 8056 f03d
00000310: c83e e1bd 78ca db3d 8695 efbe 74d3 a13e
00000320: 2049 23bd 76d5 bb3e f0b7 b4bd 40cf 74bc
00000330: f0e8 49be 6e9e e43e 4edb cb3e 2011 343d
00000340: 8443 a63e b218 cf3e e619 ba3e 3864 96bd
00000350: a083 21be c0d8 67be 446d 78be c894 493e
00000360: fa22 d9be b200 84be 2490 00be d8d8 ef3e
00000370: 084c 16be 7ad0 87be c072 edbe cc3b ef3e
00000380: 18bf 413e dae6 93be 98be 4b3e c0b6 11bc
00000390: f096 cc3d 90b4 e9be 74aa bd3e 4ccc cbbe
000003a0: 50fe 18be ec77 95be 566c efbe 5029 0cbd
000003b0: 18fb 7bbe 9894 a2be 8881 f83d 2896 d6bd
000003c0: ea21 ca3e 80f2 41bc 0029 46bd a449 ff3e
000003d0: 80f5 44bd cc9c a6be ee79 c63e d27f f1be
000003e0: dedc d8be b00a c23e 4c95 57be 6a40 c83e
000003f0: 40b3 e6bd 90d4 043d 1814 64be 6e3e eebe
-0.48405844 0.35844296 0.33596265 -0.24130201 0.41592848 0.40666097 0.022936463 0.4961009
0.3637703 0.19674206 0.2556857 -0.17925227 -0.36216104 -0.4696911 0.16523099 -0.3576433
-0.012509465 0.37458652 -0.23489934 -0.100100875 -0.43574625 -0.090031385 -0.45569032 -0.44807547
-0.27459842 0.39317775 -0.27924627 0.15921605 -0.10463655 0.2406702 0.005641103 0.34995335
-0.15664244 -0.32432032 0.40279102 0.45699215 -0.14152014 -0.17217797 0.2989027 0.14470261
-0.1131776 -0.014915645 0.39308232 -0.408831 -0.20231998 0.18869013 0.20566547 -0.29186457
-0.29872632 0.11837423 -0.15772396 -0.21701705 -0.25018138 -0.32699996 0.03091532 0.25671542
0.07268828 -0.14554977 -0.41788423 -0.2611243 -0.08137792 0.3900146 -0.23811996 0.31155062
-0.41349673 0.4943416 0.168333 -0.43052596 0.16621274 -0.07791346 0.2963518 -0.13283098
-0.44999927 0.12990266 0.17325377 0.40818006 -0.20670205 0.17061865 0.044521153 -0.08369565
0.29531878 -0.20782632 0.48673117 0.31540346 -0.24978817 0.122162044 -0.20921361 -0.18547744
-0.17472148 0.3421039 0.4423012 0.034777045 -0.046819806 0.37519717 0.08208215 -0.015368521
-0.2676807 -0.35181075 0.07636607 0.4083525 0.32369804 -0.14609116 -0.45845783 -0.12933445
-0.22352314 0.309007 -0.16190904 -0.43929565 0.28344268 -0.370726 -0.3761475 -0.3897537
-0.14226598 0.41243136 -0.14113873 0.21343505 0.49991232 0.36643195 0.3475176 0.454158
-0.39493132 0.44638163 -0.19484675 0.47674882 0.3947472 -0.15847594 0.46251422 0.013640583
-0.28995502 -0.081961274 -0.40855986 -0.120726824 0.42951435 0.14716846 -0.454251 -0.33888775
-0.24454063 0.15973222 -0.25681794 -0.46588403 0.11547071 0.15241623 -0.3614483 -0.08074653
0.14507765 0.39879954 0.17390221 -0.4923064 -0.25000733 0.2796492 -0.4664085 -0.02060163
0.11104852 -0.314359 0.06689584 0.09459168 -0.382433 -0.45110577 0.25264543 0.037948668
0.18439013 -0.38534015 -0.2845977 0.3647781 0.030879319 -0.21666265 -0.45126784 -0.13924128
0.33988816 -0.4028759 -0.32813287 0.24778414 -0.42645597 0.25479192 -0.08765882 0.037131965
-0.36021698 -0.33243644 -0.496947 0.1102401 -0.18709439 -0.09800482 0.000284791 -0.10146654
-0.45915586 -0.14210409 -0.07120407 0.119108856 -0.007635057 -0.37594372 0.16678196 0.1241827
-0.4451053 -0.016588092 0.22083122 0.117352486 -0.10998303 0.10731977 -0.46793765 0.31606638
-0.03986466 0.36686295 -0.08824146 -0.01494199 -0.19717765 0.44652122 0.39815754 0.043961644
0.32473385 0.4044853 0.36347884 -0.07343334 -0.15772867 -0.22641277 -0.24260432 0.19685662
-0.42409497 -0.2578178 -0.12554985 0.46845126 -0.14677441 -0.26526242 -0.4637661 0.4672531
0.18920553 -0.28887063 0.19896924 -0.008893669 0.099897265 -0.4564557 0.37044108 -0.39804304
-0.14940763 -0.29193056 -0.4676234 -0.034219086 -0.24607503 -0.31753993 0.12134081 -0.10477859
0.39479 -0.011837602 -0.048378944 0.4986087 -0.04808569 -0.32541502 0.387649 -0.47167832
-0.42356008 0.3789878 -0.21053046 0.39111644 -0.11264658 0.032429278 -0.2227329 -0.46532005

body.0.bias f4 [12]
00000000: b8a8 1f3e 7ebb 95be 201a 74bd 7eee 9dbe
00000010: 30a6 783d 00ab f3be fa3c 973e d8c5 3b3e
00000020: 8005 ab3b a219 ccbe d24e e63e a8e4 16be
0.15591705 -0.29244608 -0.059595227 -0.30846018 0.060705364 -0.475914 0.2953871 0.1833719
0.0052191615 -0.39863306 0.4498201 -0.14735663

body.2.weight f4 [12, 12, 5, 5]
00000000: 32bd 89be aad6 9d3e c476 c93e e851 aa3e
00000010: 7805 ad3d ce37 cd3e 1e6b d13e a0d7 9a3e
00000020: 4055 603d fc79 21be dae1 c83e c814 803e
00000030: 80a7 aebd 82cd fbbe 3c1c bebe 6ca0 08be
00000040: c03f 15bc da11 993e 22e4 e7be 905a 90bd
00000050: 4895 983e 304b 053d ce43 ad3e 30da 9bbe
00000060: e809 e43d 0c5d 863e c4c5 cb3e 743f 483e
00000070: 0002 33bb 0a1d 863e 96ae c63e d600 aebe
00000080: c416 ed3e 6813 6a3e f2c0 ef3e 6cda dcbe
00000090: 20d9 72be f8f1 2abe 6caf 57be 4c5c 0f3e
000000a0: 187a cebd ecd9 783e eab1 e1be 9692 8a3e
000000b0: 1849 793e 7c69 f9be 2629 d5be 36a5 b93e
000000c0: 2a39 bb3e a401 afbe bcfb 29be f0bc 58bd
000000d0: c026 44bd a4e1 efbe ec0e d7be a8ce a03d
000000e0: 3066 443d 9a32 d63e 0efc 9a3e 3a2f e9be
000000f0: 2097 31be 64ca 363e 3404 003e 9a52 9dbe
00000100: 5c21 4a3e beb6 ebbe d0de fcbe e678 a6be
00000110: 1c72 3abe 20f5 d4bd ac1f 34be bc73 8bbe
00000120: 2e76 dd3e 187c 5abe 0488 82be ac4f 43be
00000130: fae3 a2be 802b 6ebc a4e1 0c3e 7ca9 9fbe
00000140: c095 61bd ea29 cbbe 3004 403e c0be aa3e
00000150: 940f ccbe 181f b2be f4dd 96be 2614 ee3e
00000160: c82a 19be 640d 4fbe 9c9c 65be 8c4e 49be
00000170: 90df 6a3e 200e eabe 76aa e7be 12ad d73e
00000180: 74a8 fd3e ea11 8f3e 60e4 d8bc a6e2 fbbe
00000190: 7eed dabe 8a98 ee3e 109b b63e 44fc a0be
000001a0: 1809 b8be 58a0 5dbe d009 ce3e c83a b23d
000001b0: 32eb b7be 4a4e d43e f801 d83e b45e 543e
000001c0: 7049 41be 10a2 d33d 10c9 473e 4c81 c9be
000001d0: f067 553d ca5b b4be cc1c 11be 0030 4d3b
000001e0: 1eca e53e 8252 89be e8f5 28be a0c3 bc3e
000001f0: 76a1 9f3e 222c cf3e cca2 31be e014 453d
00000200: 7804 d7be d0bf 1cbe 04b3 393e c440 acbe
00000210: 381e b03d 8810 b4bd 12e8 dd3e d6bb e4be
00000220: c076 62be 803e be3e b87a 613e e009 d0be
00000230: 96f1 cebe ca33 8e3e d619 c6be 1865 51be
00000240: 588c d1bd 18aa f6bd 8e6a afbe d47d 773e
00000250: b2f7 e7be c0d4 4f3c 7022 c33d f8f3 b6bd
00000260: ac75 3dbe 20e1 c3bc 20f6 813c f85b acbd
00000270: 0cfd 573e cabd f33e b092 45be 00a1 7cbb
00000280: ba7c fbbe 96ee d63e 7a3e c2be c20b d23e
00000290: 2c69 9ebe 0040 3f3d c680 f53e c229 fdbe
000002a0: 6073 f7bc 06c6 a4be 8058 ddbd 4075 d5bd
000002b0: 2c43 f33e 966d 95be 0c91 38be f068 8a3d
000002c0: f0c9 803e 4e6c fa3e d044 3fbd 80f9 91bb
000002d0: 48e9 423e 6868 c6bd 5043 f83d 4e4e 8e3e
000002e0: e08e 3d3d 90a6 45be ead7 c13e 5839 12be
000002f0: faff bc3e 9ef5 8d3e 3680 dabe 9285 f2be
00000300: 06d6 ec3e 404e 733e dea4 a6be 78f1 f2bd
00000310: cc2b 6d3e ee16 c9be 04d5 e2be eadc b23e
00000320: 1c73 57be f893 373e dabd b4be 7e53 ce3e
00000330: 00e6 fb3a f849 1abe e0d4 663d 20c5 e03c
00000340: 0a9d 883e 40a3 2fbd 3c3d 5c3e e4c3 7dbe
00000350: 2857 f43e 4686 d6be c689 ea3e d0ff ce3d
00000360: 7c5c ed3e 6878 963e c46c c7be aea5 cfbe
00000370: 0e41 a93e 500b b9be 263e e63e d898 213e
00000380: 0847 f1be 4066 80bc b800 80bd ec50 6c3e
00000390: 6481 143e 20b0 9bbd 969f ff3e 4843 483e
000003a0: 7e1c b83e d86c 8c3d 98b1 e2be 54e4 91be
000003b0: a6a0 b73e 38c7 a6bd 90ff 6a3d b2c0 aebe
000003c0: a88c 0f3e 92a0 8dbe 00c4 77bb 80b2 893b
000003d0: 3caf a2be 9cae 94be 9053 abbd 5082 a1bd
000003e0: 6091 a53e c89c cf3d 5840 88be c047 2abd
000003f0: 3ee9 dd3e da04 c3be e891 b53e 3cf3 cabe
-0.26902157 0.30827838 0.39348423 0.33265615 0.08448309 0.40081638 0.40902036 0.30242634
0.0547688 -0.1576919 0.3923481 0.25015855 -0.08528042 -0.49180228 -0.37130916 -0.13342446
-0.0091094375 0.29896432 -0.4529124 -0.070485234 0.29801393 0.032542408 0.33840793 -0.304399
0.11134702 0.26242864 0.3979932 0.19555455 -0.0027314425 0.2619403 0.38805073 -0.33985013
0.4630643 0.22858965 0.46826893 -0.43135393 -0.23715639 -0.16693866 -0.21063012 0.14000052
-0.10081881 0.2430188 -0.4408105 0.2706496 0.2434429 -0.4871329 -0.41632956 0.36258858
0.3656705 -0.3418094 -0.16599935 -0.05291456 -0.047888517 -0.46851838 -0.42003572 0.078519166
0.047949016 0.4183548 0.30270427 -0.45543844 -0.17342806 0.17850643 0.12501603 -0.30727082
0.19739288 -0.4603786 -0.49388742 -0.32514113 -0.18207592 -0.103983164 -0.17590207 -0.27236736
0.43254226 -0.213364 -0.25494397 -0.19073361 -0.31814557 -0.014536738 0.1375795 -0.31183994
-0.055074453 -0.39680415 0.18751597 0.33348656 -0.39855635 -0.34789348 -0.29466212 0.46499747
-0.14957726 -0.20219952 -0.22423023 -0.1965887 0.22936845 -0.45713902 -0.4524724 0.4212423
0.49542582 0.27943355 -0.026476085 -0.49196357 -0.42759317 0.46600753 0.35665178 -0.31442463
-0.35944438 -0.21643198 0.4024186 0.08702618 -0.35921627 0.4146598 0.42189002 0.20739251
-0.1887567 0.10333645 0.19510293 -0.39356458 0.052101076 -0.3522628 -0.14171141 0.0031309128
0.44880766 -0.2682076 -0.16500056 0.36868 0.31177872 0.40463358 -0.17347258 0.04811561
-0.41995597 -0.15307546 0.18134695 -0.33643162 0.08599514 -0.087922156 0.43341118 -0.44674557
-0.22115612 0.3715706 0.2201947 -0.40632534 -0.4041869 0.27773887 -0.38691586 -0.2044872
-0.102318466 -0.120441616 -0.34260982 0.24169093 -0.45306164 0.012685001 0.09528053 -0.08933252
-0.1850192 -0.023911059 0.015864432 -0.08415979 0.21092623 0.47605735 -0.19294238 -0.0038548112
-0.49118596 0.41978902 -0.3793829 0.41024595 -0.30939615 0.046691895 0.4794981 -0.4944592
-0.030206382 -0.3218233 -0.10807896 -0.10422754 0.47512186 -0.2918517 -0.18024081 0.067582965
0.25154066 0.48910755 -0.046696484 -0.0044547915 0.19034302 -0.09687883 0.12122214 0.27794117
0.046278834 -0.1930182 0.37860042 -0.14279687 0.36914045 0.27726454 -0.42675942 -0.4736753
0.46257037 0.23760319 -0.3254766 -0.11862463 0.23161238 -0.39275306 -0.44303143 0.3493417
-0.21040004 0.1792754 -0.35301095 0.40298074 0.0019218326 -0.1506728 0.056355357 0.027437747
0.2668231 -0.042880297 0.21507734 -0.24781758 0.47722745 -0.41899318 0.45808238 0.10107386
0.46359622 0.29388738 -0.3895017 -0.4055609 0.33057445 -0.36141443 0.4496929 0.15780962
-0.47124505 -0.015673757 -0.06250137 0.23077744 0.14502484 -0.076019526 0.49926442 0.19556916
0.35959238 0.06856698 -0.44276118 -0.28494513 0.35864753 -0.08143467 0.05737263 -0.3413139
0.140185 -0.27661568 -0.0037806034 0.004202187 -0.31774318 -0.29039466 -0.08365548 -0.07886183
0.32337475 0.101373255 -0.2661159 -0.041572332 0.43342012 -0.3808964 0.3546288 -0.39638698

body.2.bias f4 [12]
00000000: 2882 553e c8bc a5bd 080a 63be ec49 48be
00000010: d0bd 9b3d 3836 8abd 00bc bcba 546e 9f3e
00000020: 98a4 3c3e ec73 94be 2462 ad3e 144e 6fbe
0.20850432 -0.08092648 -0.22171795 -0.19559449 0.07604563 -0.06748623 -0.001439929 0.3113886
0.18422163 -0.2899469 0.33863938 -0.23369628

body.4.weight f4 [12, 12, 5, 5]
00000000: 9818 c33e 5690 973e 22e9 d33e 30ea ed3e
00000010: 0051 603b 5478 113e 2222 e6be ec68 69be
00000020: 40bb 07bd 0a4d fabe 4042 a4bd e4c3 33be
00000030: 5ae5 c43e 0088 a53d 52c4 e13e 4c2a 173e
00000040: 94bf 92be 1a02 95be 8c69 75be 2eb9 993e
00000050: d0aa 943d 56c9 f1be 007d 953e 0098 f63a
00000060: 7c76 053e d62b a9be aeff d1be cce4 b0be
00000070: ea6a a2be c08c 4abe b0ea 713d e0d6 783d
00000080: 0038 a1bc b861 143e 7086 93bd b875 c1bd
00000090: eca7 61be 600d 1fbd 8c2e 7d3e c05b 083c
000000a0: d823 943e c4e5 f6be c0fe 003c 00be 2bbb
000000b0: 0a6c 8ebe 7c8b 163e d235 f33e 5494 8b3e
000000c0: 5ca1 4c3e 2618 cbbe 5cb4 7bbe 6871 143e
000000d0: a039 86bd 0c68 1ebe c094 573e 82c4 c7be
000000e0: 0620 afbe 4019 9c3e c497 613e 04f6 99be
000000f0: 4866 8f3d 60c4 1bbd 004d dfbe 908d 90be
00000100: 74ec bf3e b0d1 433e 6aa3 9a3e 6237 99be
00000110: 229d b7be 007e b03b 40d4 ba3c 2c5e 54be
00000120: 4e88 b9be 40a5 c7bc 32e1 dd3e 7857 d23d
00000130: 180b dc3e f809 d43d a031 44be c6bb 813e
00000140: 2860 933e c0d5 463c f623 a53e d005 83bd
00000150: b09f f2bd 8066 f83b 3659 c6be 78cb 3cbe
00000160: 46ef b13e ea8c 943e 4297 c4be 20f8 eebe
00000170: 28fe 9bbd ca8d ac3e c4a8 3c3e 7c68 00be
00000180: c06d 0c3e 00aa 3f3e 84ac 3c3e 92a3 a73e
00000190: 4614 88be 58a1 d0bd 6e50 d4be fc80 2d3e
000001a0: f83c cb3d c208 ee3e a03e ee3c b8e0 923d
000001b0: ac6d 73be 5cf4 6a3e 846a a23e 40ae 423c
000001c0: e0ca 8bbc 3c48 22be 0c7b c6be 707a 3d3e
000001d0: bcfc bebe 000c 26bd 70bc dcbe 9287 a23e
000001e0: 5806 1b3e b0ab a83e 4adc ecbe b46a d13e
000001f0: 5400 debe 40a9 4dbc 6608 a93e aea9 dbbe
00000200: 04c4 f6be 20c4 e93e 78b0 373e 366f 95be
00000210: 7438 9abe e074 c9bc d42b c5be 20f5 933e
00000220: 6298 d23e 1400 953e 8085 e6bb cac9 8fbe
00000230: ee6f b83e a058 a93d 5cd7 fb3e 74f1 183e
00000240: 5082 003d 4076 c2bc 94a2 65be f0ea ea3d
00000250: 6e3f a23e 9ef4 993e c0aa 41bd 0010 483d
00000260: 806e 1e3e 7036 3bbd 3cd4 a1be a242 d63e
00000270: f442 e8be b0a4 15bd 989b 193e f04f e7be
00000280: 1893 e03e d237 893e 5870 9abd d825 84be
00000290: a0e0 873c d4e8 9ebe f455 b0be f01f 9cbe
000002a0: aa81 973e 80f2 123d 6cf0 cabe e4be 56be
000002b0: c040 803e 54a1 b7be 7ec8 a7be 8e73 eebe
000002c0: c606 aabe 8cc3 883e bcc8 5abe 3ca1 c13e
000002d0: 301a 213e a03b e33e 00be 8e3d 6e47 ca3e
000002e0: 3269 a1be 9470 953e 8e2d e33e 0cc6 b33e
000002f0: 8815 da3e 4075 dfbe 6080 c43d be48 f1be
00000300: 884e 753e ac10 8c3e d0c9 d13e b8dd ccbe
00000310: 60ba a03c 06aa e1be ec33 c7be 40fb 493e
00000320: c4f0 823e 9e62 933e 6e03 d7be ccab bdbe
00000330: 0801 f53e 5a21 913e 548c 5c3e 543f e53e
00000340: ba18 edbe ea3a e7be 527a 96be 1844 cc3d
00000350: 10e1 ca3e 80ca 843c a89f bf3e da3d ee3e
00000360: 0e8e 9d3e 005d 17bd 9cf6 c2be 307e 7b3e
00000370: 6070 4f3d 8e08 d4be fc84 4f3e 2ec4 fdbe
00000380: 0437 24be 7012 37bd 4050 32bc 6832 0fbe
00000390: 824e cf3e 4c13 3b3e 800e 6cbe 9e1b f03e
000003a0: d41e dcbe a052 233e 60f3 d6be 8653 8d3e
000003b0: fa22 db3e 6ee1 f2be 84e9 953e a0c2 c1bd
000003c0: c014 133c 98af 6cbe 749d 97be 84c3 a83e
000003d0: 8025 0ebd 148f 123e 7047 89be a8fc 77be
000003e0: 7677 b8be 48ad c13d f887 db3d d009 cf3d
000003f0: e0f7 bb3d 1012 81bd 88ec a03d ac99 ad3e
0.381047 0.29602307 0.41388804 0.46467733 0.0034227967 0.14206058 -0.44947916 -0.22793931
-0.03313756 -0.488869 -0.08020449 -0.17555195 0.3845623 0.080825806 0.44095093 0.14762229
-0.28661788 -0.29103166 -0.23966044 0.30024093 0.072591424 -0.4722392 0.2919693 0.001881361
0.1303348 -0.33041257 -0.4101538 -0.34549558 -0.31722194 -0.19780254 0.059061706 0.060751796
-0.019680023 0.14490402 -0.07203376 -0.09446281 -0.22036713 -0.038831115 0.24724787 0.008322656
0.28933597 -0.48222172 0.007873237 -0.0026205778 -0.27816802 0.14701647 0.47502 0.27261603
0.19983429 -0.3966686 -0.2458052 0.14496386 -0.0655396 -0.15469378 0.21052837 -0.3901711
-0.3420412 0.30488014 0.2203055 -0.30070508 0.070019305 -0.038029075 -0.43613434 -0.28233004
0.37485087 0.19122958 0.302028 -0.29925066 -0.3586207 0.005386114 0.022806287 -0.20739049
-0.36236805 -0.02437079 0.43335873 0.102705896 0.42977214 0.10353464 -0.19159555 0.25338572
0.287843 0.012135923 0.32254 -0.06397593 -0.11846864 0.0075805783 -0.38739938 -0.18436992
0.34752864 0.2901376 -0.3839665 -0.4667368 -0.07616836 0.33701926 0.18423754 -0.12539858
0.13713741 0.18717194 0.18425184 0.32741982 -0.26577967 -0.10187024 -0.41467613 0.16943735
0.09923738 0.46491057 0.029082596 0.07171768 -0.23772305 0.22944778 0.3172189 0.011882365
-0.017064512 -0.15847868 -0.38765752 0.18503737 -0.37302196 -0.040538788 -0.43112516 0.31744057
0.15139139 0.32943487 -0.46261817 0.4090172 -0.43359625 -0.012552559 0.3301422 -0.42902893
-0.48196423 0.45657444 0.17938411 -0.2918641 -0.30121195 -0.024591863 -0.3851 0.28897953
0.41131884 0.29101622 -0.0070349574 -0.2808364 0.36022896 0.08268857 0.49187744 0.14935857
0.031374276 -0.023738027 -0.224253 0.11470592 0.31689018 0.3006944 -0.04728198 0.048843384
0.1547184 -0.045706213 -0.31607234 0.41847712 -0.4536358 -0.03653401 0.1500076 -0.45178175
0.43862224 0.268004 -0.07540959 -0.25810122 0.016586602 -0.3103701 -0.34440577 -0.30493116
0.29591113 0.035875797 -0.39636552 -0.20971256 0.250494 -0.3586527 -0.3277015 -0.46572536
-0.33208293 0.2671169 -0.21365637 0.37818325 0.15732646 0.44381428 0.069698334 0.39507622
-0.3152557 0.29187453 0.44370693 0.35112035 0.42594552 -0.43644142 0.09594798 -0.4712581
0.23955739 0.2735647 0.40974283 -0.40012908 0.01962012 -0.4407503 -0.389068 0.1972475
0.25574315 0.28786176 -0.41994804 -0.37045133 0.4785235 0.28345758 0.21537906 0.44774878
-0.46307927 -0.45162135 -0.29390198 0.09973925 0.39624834 0.01620984 0.37426496 0.46531564
0.30772442 -0.036953926 -0.38078773 0.24559855 0.05064428 -0.41412777 0.20265573 -0.49563736
-0.16036612 -0.044695318 -0.010883391 -0.13984072 0.40489584 0.1826908 -0.23052406 0.4689607
-0.4299227 0.15949488 -0.41982555 0.27602786 0.42800122 -0.47437614 0.2927972 -0.0946095
0.008977115 -0.23113859 -0.29612315 0.32961667 -0.03470373 0.14312392 -0.26812315 -0.24217474
-0.3602864 0.09456879 0.10719293 0.101092935 0.09178138 -0.06302273 0.07857615 0.33906305

body.4.bias f4 [12]
00000000: 4012 333e 16a6 e6be ee00 c53e cc87 c1be
00000010: 0221 9f3e c8cb 0f3e f41d 35be bec0 b53e
00000020: 7205 f73e ba1b acbe e846 943e d817 ebbe
0.1748743 -0.4504859 0.38477272 -0.37798917 0.3107987 0.1404258 -0.17687207 0.35498613
0.48246342 -0.33614904 0.28960347 -0.4591663

body.6.weight f4 [12, 12, 5, 5]
00000000: d891 fb3d e424 e43e b030 fd3e 0826 20be
00000010: 083f 813d a04f dcbc c255 c73e 5019 d7bd
00000020: 6c7a 843e 3497 953e a6ab d43e b820 453e
00000030: 9484 f43e fcc7 3b3e 76d8 dc3e 6031 a5bc
00000040: dc7f 36be 0047 6cbd 0a9e c9be 00e4 53bd
00000050: f4e6 583e c801 69be 0eae dcbe 908a d43d
00000060: 3e17 bd3e 4063 64bc 9683 babe 9e76 c33e
00000070: 1ab8 e4be 18d1 c93e 6838 87bd 124f ba3e
00000080: 1066 bd3e f68b 803e 94fa 763e e0c7 a13d
00000090: b049 22be 1897 e53d 384a 81be 9ce1 b1be
000000a0: 22a6 a3be 2e1d bc3e 1e73 cfbe 92ab cf3e
000000b0: d814 44be d6c1 ef3e 38ee c43e 8871 cebd
000000c0: f0a7 373d dafe f93e de8d b13e bcb5 62be
000000d0: 1686 ddbe f450 bdbe c4b2 d93e 48f7 ee3e
000000e0: b496 63be 3097 1dbd 70e2 56bd 405c 71be
000000f0: ea26 9d3e d0ca b13d 1c7e 68be 0479 1fbe
00000100: e898 23be 984d ffbe 1074 8cbd 2c3a 693e
00000110: cefa ee3e 6423 b83e 544c 9ebe 3606 cabe
00000120: d22d ddbe 3cd2 32be c03c 2abe 945d 15be
00000130: 84b7 fabe a85a f53e 9099 e8bd 0086 453d
00000140: 147d 7cbe 4857 ef3e 5463 063e e8e2 ae3d
00000150: 12db 913e 402d 173d 6654 ad3e 523d c1be
00000160: 2ab0 dc3e 141c 80be 4400 d43e 5814 843d
00000170: 8887 e3bd 80e9 7cbe 8cf9 633e 8013 d03d
00000180: f895 ae3e 845f a2be 8c83 3d3e 7602 cdbe
00000190: da31 b33e ea47 81be 7404 31be 004c ea3c
000001a0: 406b 603e cc4b bcbe 70ac 9ebd 9471 93be
000001b0: 20ab dfbd c0c1 5abe 3063 2a3d e67d 843e
000001c0: 6aec d3be ba58 e03e 8882 b9be a4a4 a63e
000001d0: e0ed 723e 0acb ad3e b8c7 553e 908b 4ebd
000001e0: 02e2 fbbe 280a d13e 280f 87bd 80bd bc3e
000001f0: fc09 553e 668d a8be 4847 313e c40f c3be
00000200: 88d6 d9bd 8087 ae3b 9870 f0bd b82d 3e3e
00000210: 48e9 dd3e 24e0 ddbe 04f3 5f3e a0cc 3bbd
00000220: 20db 00be c433 bfbe 7092 7c3e 78d7 e13e
00000230: 7878 57be 9881 973e 02e1 bcbe 181a e7bd
00000240: 1ceb b3be 5004 c5be 2cd9 1b3e 8845 8b3e
00000250: 70b2 33be e0f7 8cbe 788f a33e a4b2 083e
00000260: 9c77 993e 9cb5 cf3e d04c ca3e 7663 ba3e
00000270: 2865 d03e 40bb d3bc 22d7 9cbe e237 dfbe
00000280: 4c8c 3e3e cc8c a2be f20b d63e 9a67 83be
00000290: 14ea 4d3e 9074 20bd 40b6 4e3c 3ab6 f43e
000002a0: de8e d7be 70f6 223e a8c7 16be 9072 79be
000002b0: 8420 6cbe 90d5 b5bd 4cb7 6d3e d0f3 023d
000002c0: d828 aa3d 8045 d9bb b880 90be 505b 7d3e
000002d0: 90f8 ccbe 88c2 8f3e 4012 65bd dc2c a8be
000002e0: 609b bcbe 5245 ffbe 50b5 153d 86f1 873e
000002f0: dc3c d5be a0b3 6dbe c0c7 b33e 801b 5fbd
00000300: 20e0 dbbc e0fd 973c 7087 83be 00e1 5d3b
00000310: 300b 6bbd f08f 973d 7021 313d 7877 ccbe
00000320: 900e 77bd 3827 b33d ec2a f63e 206f acbe
00000330: a04a 903c 9040 45bd c8d4 0d3e ac03 d43e
00000340: a0ce c3bc 2cdc 43be 20c1 8bbd d01b 413e
00000350: 6cec dbbe 40f2 afbe 225d d73e 5810 78be
00000360: e63e b7be 7a0c 9bbe a230 82be 4075 1ebe
00000370: e840 00be 5c78 d8be 94fb ebbe 8807 f93d
00000380: ee48 edbe c0d5 f23c 9097 e1bd 54c8 6dbe
00000390: 3221 e33e f2f4 d9be bca0 e93e 5e93 8d3e
000003a0: 20f9 333e 08f1 bebd 8c9c b9be c02a 59bd
000003b0: 0070 2b3b 120f cbbe 80e4 4e3c 1c77 a0be
000003c0: 1037 2cbe bc9a c9be b872 d33d 2882 96bd
000003d0: 4cee 88be 083a 3d3e aad3 99be c043 4b3e
000003e0: 0c2f ec3e 6082 0bbe 3cf6 c53e c457 c2be
000003f0: b86e adbd 84a2 003e bc09 6bbe b655 aabe
0.12283677 0.44559395 0.49451208 -0.15639508 0.063108504 -0.026893437 0.38932616 -0.10502875
0.2587465 0.2921692 0.41537207 0.19250762 0.477574 0.18338007 0.43133897 -0.020165145
-0.17822212 -0.0576849 -0.39378387 -0.05173111 0.21181852 -0.22754586 -0.43101543 0.10377991
0.36931795 -0.013939679 -0.36428517 0.38176435 -0.44671708 0.39417338 -0.066025555 0.3638845
0.3699193 0.25106782 0.24119025 0.07899451 -0.15848422 0.112104595 -0.25251937 -0.3474244
-0.31962687 0.36741012 -0.40517515 0.40560585 -0.19148576 0.46827573 0.38462996 -0.10080248
0.044837892 0.4882725 0.3467855 -0.22139639 -0.43266362 -0.36975825 0.425192 0.46673036
-0.22225457 -0.03847426 -0.05246204 -0.23570347 0.30693752 0.086812615 -0.22704357 -0.15573508
-0.15976298 -0.49863887 -0.06858075 0.22776097 0.46675724 0.359645 -0.3091761 -0.39457864
-0.4319902 -0.1746301 -0.16624737 -0.14586478 -0.48968136 0.47920728 -0.11357415 0.048223495
-0.24657089 0.46746278 0.13123828 0.08539373 0.2848745 0.03690839 0.33853453 -0.37742096
0.43103153 -0.25021422 0.41406453 0.06449193 -0.11109835 -0.24698448 0.22263163 0.10159969
0.34098792 -0.31713498 0.18507212 -0.4004094 0.3499897 -0.2525018 -0.17286855 0.028600693
0.21915913 -0.36776578 -0.077477336 -0.2879759 -0.109213114 -0.21362972 0.0415985 0.25877303
-0.41391307 0.43817693 -0.362324 0.32547486 0.23723555 0.3394397 0.20876968 -0.050426066
-0.49195868 0.4082806 -0.06594688 0.36863327 0.2080459 -0.32920378 0.17312348 -0.38097966
-0.10636622 0.0053262115 -0.117402256 0.18572128 0.43342042 -0.43335068 0.21870047 -0.045849442
-0.1258359 -0.37344182 0.24665236 0.44109702 -0.21042049 0.2959106 -0.36890417 -0.11284274
-0.35140312 -0.38479853 0.15219563 0.27201486 -0.17548537 -0.27532864 0.31945395 0.13349396
0.29974067 0.40568244 0.39511728 0.36404008 0.40702176 -0.025846124 -0.30632883 -0.43597323
0.18608207 -0.31748044 0.4180599 -0.2566498 0.20108825 -0.039173663 0.012616694 0.47795278
-0.42101187 0.15914321 -0.147246 -0.24360108 -0.23059279 -0.088786244 0.23214453 0.0319708
0.083085716 -0.0066305995 -0.28223205 0.24741864 -0.40033388 0.28078103 -0.055925608 -0.32846725
-0.36837292 -0.49857575 0.036549866 0.26551455 -0.41647995 -0.23213053 0.35113335 -0.054469585
-0.02684027 0.018553674 -0.25689268 0.0033856034 -0.057383716 0.07400501 0.04324478 -0.39934897
-0.060316622 0.08747715 0.48079622 -0.33678532 0.017613709 -0.048157275 0.13850701 0.4140905
-0.023902237 -0.19126958 -0.06823945 0.18858266 -0.42953813 -0.3436451 0.42063242 -0.24224985
-0.35790175 -0.30282956 -0.2542773 -0.15474415 -0.1252476 -0.42279327 -0.46090376 0.121596396
-0.46344703 0.02964294 -0.110152364 -0.2322095 0.44361264 -0.4256969 0.45630443 0.27651495
0.17575502 -0.09323317 -0.36252248 -0.053019285 0.0026159286 -0.39659935 0.012627721 -0.31340873
-0.1681788 -0.39375865 0.10324615 -0.07349044 -0.26744306 0.18479168 -0.300443 0.19850063
0.46129644 -0.13623953 0.38664424 -0.37957585 -0.084683836 0.12561995 -0.22952932 -0.33268517

body.6.bias f4 [12]
00000000: b0a6 ea3e d6b3 efbe d033 53bd 084a 7dbe
00000010: 1697 d83e 409c 10be 90c7 b43d 40fa 083c
00000020: 9447 59be 2006 6a3d 9474 90be 90f1 e23d
0.45830297 -0.4681689 -0.051563084 -0.24735272 0.4230277 -0.14122105 0.08827126 0.0083604455
-0.21218711 0.057134748 -0.28213942 0.11081231

fc.0.weight f4 [100, 768]
00000000: be9e f43e ded7 86be 7054 d1be 501e 0ebe
00000010: a4e1 a13e 0076 cabc b81f 813d 94ae 283e
00000020: 305f 97bd 50ec 213d 006b 9fbb 20b0 223e
00000030: 9817 27be 1c54 c23e 10fe f9bd a033 c63c
00000040: e250 82be ca92 e93e d27b b43e 2876 bcbe
00000050: 009e c0bd 7885 f4be d008 c4be 78dc c9bd
00000060: 3890 82be ec03 01be 8254 d23e 5692 993e
00000070: 1614 e4be e08b 3a3d fe96 d4be 14b3 83be
00000080: 2c52 ec3e 74c6 d43e f811 ed3e 78cc e6bd
00000090: e800 da3d 1e69 eebe 908b 6cbd 18cb d5be
000000a0: c0a1 7f3c 68c4 e23d c02d bbbe 7a5a f7be
000000b0: 6605 f7be 1c10 473e b2c8 afbe 0aa5 be3e
000000c0: 92a6 cd3e 30cf 3f3e 489b 78be 9c10 e4be
000000d0: 446f 76be dae3 e2be 680d 86be 60cc b9be
000000e0: 4c8f d1be 743e 00be d4aa 0a3e 784e fdbe
000000f0: 00b1 d1bd c085 c2be 8087 2f3c d8d2 9ebd
00000100: 789d e03e e857 e5bd 26c7 c6be 08f2 b6bd
00000110: e0af d73c dac4 9abe 30a9 2bbd 6020 dc3e
00000120: 920d fcbe 00b8 e03b a827 143e 3c93 fd3e
00000130: 3888 e8bd 686a 93bd 926b d0be 123c babe
00000140: 6e77 e4be f07c 8e3d b089 5cbe b874 b0be
00000150: 44f1 58be 8c27 373e 7017 183e 780b 13be
00000160: 6e51 f73e 0010 4e3e 5c87 f1be bc9a 573e
00000170: 8877 2d3e 4866 2dbe 2c6b 4cbe e401 aebe
00000180: c09b e33c d451 be3e b09b d93e fa69 d7be
00000190: 802e e93e 76b6 f3be ac03 d0be cc56 f4be
000001a0: 0a73 f13e b88d 27be 40a8 eebc dacc e93e
000001b0: 9878 ea3e a070 ca3e a6b5 873e 7c10 c4be
000001c0: e022 e3bd 2610 eebe 7057 b73d da4d d5be
000001d0: eeb6 823e 1a1d f4be 2acb a23e 60b7 79bd
000001e0: 4422 d23e 28c9 0f3e 2ea0 b6be 189d 5e3e
000001f0: 4072 1d3d 00cf 233b 044e b33e 000e 523b
00000200: 348e 4e3e a4ad 2c3e 9821 edbe 308a 2c3d
00000210: 1822 cbbd b0a4 75bd d496 243e 0059 0dbc
00000220: ac53 ac3e fecc c0be 3afb eb3e 18d4 963d
00000230: 3072 093e d4d1 b4be 4c6d 11be d02c dabd
00000240: c002 5d3d eaff e43e 5226 a8be 7637 bd3e
00000250: 34fc 7fbe 8441 443e 0e68 db3e f4e5 f2be
00000260: ecb6 40be 9618 a9be 8077 ff3b 7ad7 c73e
00000270: caa8 e93e b63b b8be fad9 e2be c65e c5be
00000280: b449 20be cc0e 9b3e 5ece c13e 0024 a3be
00000290: 18f9 e0be 88be 863d 368b 8a3e 7225 8e3e
000002a0: 7851 e33d bae9 f23e ac01 9e3e 30f9 d5be
000002b0: 285b b03e f858 d4bd c051 483d d0f7 5c3d
000002c0: 3ce8 db3e ca07 f4be dc97 913e c416 2a3e
000002d0: 1448 3a3e 4ef2 923e 365f da3e ea8e cfbe
000002e0: 2056 1ebe 9840 353e a4f2 593e 740f 5ebe
000002f0: 7c93 d73e 2c64 bc3e 1005 1d3d 04dc a13e
00000300: 60ad d83e a611 e33e 80b4 fdbc 686b ddbe
00000310: e830 7dbe 560a 9b3e 7064 94be 46b3 dc3e
00000320: 00b6 df3a 649b d53e ac1f e03e a4d7 c13e
00000330: c62a dcbe 0a99 9e3e 287e 9fbd e00f 1c3d
00000340: 60d0 edbe 201f 083e 2c07 443e f8fe a7bd
00000350: 402b b9be d04d 90be acea 35be 1422 fdbe
00000360: 688f 27be 62d2 c93e 6880 24be 10a5 733e
00000370: b86a ac3e 6465 9f3e 341e 573e 5877 843d
00000380: c02d dbbe 1c9a de3e 3cb9 03be 4891 cdbd
00000390: 1a30 f6be 40a8 b9be 681a 963e 9822 b5be
000003a0: 08f8 133e 24a9 8bbe 7626 f83e 88b2 6fbe
000003b0: 54b5 ef3e 44c2 c13e 7422 d33e a0a0 f53e
000003c0: 0cfa ebbe c4e5 8c3e 903c 9abe 62f6 a1be
000003d0: 0077 5ebc 9e1a 9a3e 8a9a c03e 90a0 b9be
000003e0: f6e6 a6be 76cf b7be 90f3 c03e 588d 85bd
000003f0: e00b ec3c 76e1 9f3e 12e5 d9be f0af f03d
0.4777736 -0.2633657 -0.40884733 -0.13878751 0.31617463 -0.02471447 0.06304878 0.16472846
-0.073912024 0.039532006 -0.0048650503 0.15887499 -0.16317594 0.37954795 -0.12206662 0.024194539
-0.25452334 0.45619804 0.35250717 -0.36808896 -0.09405136 -0.4775808 -0.38287973 -0.09856504
-0.25500655 -0.12599152 0.410801 0.29994458 -0.44546574 0.04554355 -0.41521448 -0.25722563
0.46156442 0.41557658 0.46302772 -0.11269468 0.10644704 -0.46564573 -0.057750285 -0.4175651
0.015602529 0.11072618 -0.36558342 -0.48311216 -0.48246306 0.19439739 -0.34332806 0.3723529
0.40166146 0.1873138 -0.24277985 -0.44543922 -0.24065882 -0.44314462 -0.26182103 -0.36288738
-0.4092964 -0.12523824 0.13541728 -0.4947393 -0.10238838 -0.37992668 0.010713458 -0.07755059
0.4387014 -0.111984074 -0.38823813 -0.089328825 0.02632898 -0.3022831 -0.041909397 0.4299345
-0.49229103 0.006857872 0.14468253 0.49526393 -0.11354107 -0.0719803 -0.4070707 -0.36373955
-0.44622368 0.06957424 -0.21536899 -0.3446405 -0.21185786 0.1788618 0.1485269 -0.14359844
0.48304313 0.20123291 -0.47173584 0.2105512 0.16940129 -0.16933548 -0.19962758 -0.33985817
0.027784228 0.37171805 0.42501593 -0.4207304 0.4554329 -0.47600144 -0.406278 -0.4772247
0.4715808 -0.16362655 -0.029132962 0.45664102 0.4579513 0.3953905 0.26505774 -0.38293827
-0.11090636 -0.46496695 0.08952224 -0.4166096 0.2553019 -0.47678453 0.31795627 -0.060965896
0.41041768 0.14041579 -0.35669082 0.21739614 0.038439035 0.0024995208 0.3502046 0.0032051802
0.20171434 0.16863114 -0.46314692 0.042123973 -0.09918612 -0.05997151 0.16073161 -0.008627176
0.33657587 -0.37656397 0.46090108 0.073646724 0.13422465 -0.35316336 -0.1420185 -0.106530786
0.0539577 0.44726497 -0.32841736 0.36956376 -0.24998552 0.19165617 0.42852825 -0.47441065
-0.18819779 -0.3302657 0.007796228 0.39031583 0.45636588 -0.35983056 -0.44306928 -0.3854887
-0.15653116 0.30284727 0.37852758 -0.31863403 -0.43940043 0.0657931 0.27059335 0.27762944
0.11099523 0.47443944 0.3086065 -0.41791677 0.34444547 -0.10368532 0.048906088 0.05394727
0.42950618 -0.47662193 0.28436172 0.16610247 0.18191558 0.2870049 0.42650765 -0.40538722
-0.15462542 0.17700422 0.21283966 -0.21685582 0.4210471 0.36795175 0.038334906 0.3161317
0.42319775 0.44349402 -0.030969858 -0.43246007 -0.24725688 0.30281323 -0.28982878 0.43105525
0.001706779 0.41720116 0.43774164 0.37859833 -0.43001384 0.30976135 -0.07787734 0.038101077
-0.4644804 0.13293123 0.19143361 -0.08202928 -0.3616581 -0.28184366 -0.17765301 -0.49440062
-0.16363299 0.39418322 -0.16064608 0.23793435 0.3367517 0.31132042 0.21007615 0.064680755
-0.42808342 0.4347695 -0.1286363 -0.10037476 -0.48083574 -0.36261177 0.2931702 -0.35377955
0.14450085 -0.27277482 0.48466843 -0.23407948 0.4681803 0.37843525 0.41237223 0.4797411
-0.46089208 0.27519047 -0.3012433 -0.31633288 -0.0135781765 0.30098432 0.37617904 -0.36255312
-0.32598084 -0.35900468 0.37685823 -0.065211 0.028814256 0.312267 -0.4255758 0.117523074

fc.0.bias f4 [100]
00000000: 5868 973e f231 823e e201 9ebe 3810 0ebe
00000010: 40b8 7d3d e0fc 413e a4d1 aebe 1867 39be
00000020: 809c 36bc 0612 ce3e 24e7 5a3e 0004 2eba
00000030: 00b3 9a3c 3c64 d43e 6edb d43e c053 263c
00000040: 8a24 8c3e f41e c63e 2a00 843e b4a7 083e
00000050: 76ac f8be ce3e 93be c4ed 72be 5016 4ebd
00000060: 4476 483e ea00 b73e 6c40 c5be da7c 953e
00000070: 502a ddbe 009a 4f3b 9012 003d 9cd6 62be
00000080: a4ff fd3e 8836 da3d 5832 c43e fca9 da3e
00000090: 2868 643e 1865 74be 608a b0be 7666 afbe
000000a0: 4e14 f2be d8a0 e4be b854 3b3e bcd5 773e
000000b0: 50b6 70be 4040 093e de71 a4be 848f 4abe
000000c0: 70a3 d23e 1c06 d03e c6a8 d53e d03e b0be
000000d0: f699 f0be bc51 183e b8d3 c33d 40fc e93d
000000e0: 8887 36be 9cdf b3be f432 cdbe 80d7 2abe
000000f0: 3855 d3bd 5ef7 b5be 6048 78bd 20a1 e23d
00000100: c47c 3bbe e0ff 5b3e 6431 23be b4f9 c4be
00000110: ac44 a83e 5c89 df3e 305f 463e aa2a 893e
00000120: bc15 9a3e d8f9 bdbe 240f 863e 0035 dabd
00000130: b009 ca3d e0e3 da3e a87d c7bd e812 c93d
00000140: c4ac dabe 885d d43d 9ac5 de3e ac76 0bbe
00000150: 5047 c63d 8065 5d3e ec12 e3be 7267 f23e
00000160: a41c 4bbe f893 f63e e0ad b6bc fcaf 7bbe
00000170: e4c3 1f3e c08f 50bc 6878 d2bd 16ac 813e
00000180: b8a8 efbe d413 fdbe 623f fdbe 0892 b23e
0.29571795 0.2542873 -0.3086081 -0.13873374 0.061943293 0.1894412 -0.34144318 -0.18105733
-0.011145711 0.40248126 0.21377236 -0.0006638169 0.018884182 0.41482723 0.41573662 0.0101518035
0.27371627 0.3869549 0.25781375 0.13345224 -0.48569077 -0.28758854 -0.23723513 -0.050314248
0.19576365 0.35742885 -0.38525712 0.29196817 -0.43196344 0.0031677485 0.031267703 -0.2215218
0.496091 0.10654932 0.3831966 0.42707813 0.22305357 -0.23866689 -0.34480572 -0.3425786
-0.47281116 -0.44653964 0.18294036 0.24202627 -0.23507047 0.13403416 -0.32118124 -0.1978131
0.41140318 0.4062966 0.41730326 -0.34422922 -0.46992463 0.14874929 0.095618665 0.11425066
-0.17825139 -0.35131538 -0.40077937 -0.16683769 -0.103189886 -0.3554029 -0.060615897 0.110658884
-0.18309313 0.21484327 -0.1593681 -0.38471758 0.32864892 0.43659484 0.19372249 0.26790363
0.30094707 -0.37104678 0.26183426 -0.1065464 0.09865129 0.4275198 -0.09740764 0.09818059
-0.42709935 0.10369402 0.43510133 -0.13619488 0.096815705 0.2162075 -0.44350374 0.47344548
-0.19835144 0.48159766 -0.022299707 -0.24578851 0.1560207 -0.012729585 -0.10276872 0.25326604
-0.4680841 -0.4942919 -0.4946242 0.34877038
